RL_HW1/code/models/0_model.pth (torch, 806599 bytes, 10 tensors)

cnn.0.weight f4 [16, 3, 8, 8]
0	0xbc6bb60c	-0.014386665
1	0xbd87b4d4	-0.06626287
2	0x3d5b592c	0.053551838
3	0xbd2b8020	-0.041870236
4	0x3d8c2474	0.068428904
5	0x3a99b080	0.0011725575
6	0x3d23a1d0	0.03994924
7	0x3cbac2c0	0.022797942
8	0xbd71a25a	-0.05899272
9	0xbcb2cac2	-0.021825198
10	0xbd7b0796	-0.06128653
11	0xbd78cfef	-0.060745176
12	0x3d43c572	0.04779572
13	0xbd43fe15	-0.047849733
14	0x3d918b52	0.07106651
15	0xbd2f3c19	-0.042781923
16	0x3cf932b4	0.030419685
17	0x3d51edb2	0.051252075
18	0x3cbd4700	0.023105145
19	0xbcfefab2	-0.0311254
20	0x3c69eba8	0.014277376
21	0xbca3b3be	-0.019983169
22	0x3d2f34f2	0.042775102
23	0xbc0db4e8	-0.008649088
24	0x3d0a4d90	0.033765376
25	0x3b5c5800	0.0033621788
26	0xbbdf7390	-0.006819196
27	0x3d669c40	0.056301355
28	0xbd6fd7e7	-0.05855551
29	0x3c3976e8	0.011319853
30	0x3d92394c	0.07139835
31	0x3d11e97a	0.03562305
32	0x3c97b2a8	0.018517807
33	0xbd5f56da	-0.054526187
34	0xbd1e4710	-0.03864199
35	0xbd645758	-0.05574736
36	0xbd5cbc44	-0.05389048
37	0xbd8dd8e4	-0.06926134
38	0xbc2f8814	-0.010713596
39	0x3d175456	0.036945663
40	0x3d85ff9c	0.06542894
41	0xbcfbec92	-0.030752454
42	0xbce403f4	-0.027833916
43	0xbad2af40	-0.0016073957
44	0x3d459886	0.04824116
45	0x3d3682d6	0.04455837
46	0x3d3d3ea2	0.04620231
47	0x3c0be4d8	0.008538447
48	0x3cb49330	0.02204284
49	0x3d4c8304	0.049929634
50	0xbd4df916	-0.050286375
51	0xbd72b551	-0.059254948
52	0x3d51ede0	0.051252246
53	0x3d7a9f58	0.06118712
54	0x3c358380	0.011078715
55	0x3cf3d998	0.029766843
56	0xbd88e9ab	-0.06685194
57	0x3d6400f8	0.055664986
58	0x3d10916c	0.035294935
59	0xbaf98180	-0.0019035786
60	0xbcf925da	-0.030413557
61	0xbcfa8370	-0.030580252
62	0x3d5ead34	0.054364398
63	0xbd84c34d	-0.06482563
64	0x3d18f1d6	0.037340008
65	0x3b361940	0.0027786046
66	0xbcbf0362	-0.023317043
67	0x3d0bdde6	0.034147166
68	0x3d6dcc20	0.058055997
69	0x3d66533c	0.056231722
70	0x3d1119b0	0.035424888
71	0x3d5cf0f4	0.05394073
72	0x3c9c7e88	0.019103304
73	0xbd6b743c	-0.057483897
74	0xbd2a676c	-0.041602537
75	0xbd8a01b2	-0.067386046
76	0xbcf0dafc	-0.029401295
77	0xbd5f9b72	-0.054591604
78	0xbca3e25e	-0.020005401
79	0xbd520bbc	-0.051280722
80	0xbd6c8c82	-0.057751186
81	0xbc3feb34	-0.011713792
82	0x3ce25de4	0.027632661
83	0xbb7c5320	-0.0038501695
84	0xbcd494ba	-0.025949825
85	0x3d2a9a86	0.04165127
86	0x3b6da3e0	0.0036261007
87	0x3c96c22c	0.018403135
88	0x3d5d1970	0.053979337
89	0xbd2df33e	-0.042468302
90	0xbd550540	-0.05200696
91	0xbd7da176	-0.06192156
92	0xbd176478	-0.03696105
93	0xbd452118	-0.048127264
94	0xbd477d66	-0.048703574
95	0xbd45abec	-0.04825966
96	0x3b8c3160	0.004278347
97	0x3ca6a0cc	0.020340346
98	0xbd66ddbe	-0.056363814
99	0xbd8ed650	-0.069744706
100	0xbd20d34c	-0.03926401
101	0x3cafe56c	0.021471702
102	0xbd6c9cd2	-0.057766743
103	0x3b814290	0.0039447024
104	0x3cbc0120	0.022949755
105	0x3d53ce54	0.05171044
106	0xbc034d98	-0.008014105
107	0xbbcd5ab0	-0.0062669143
108	0x3d331302	0.0437193
109	0xbd376b48	-0.044780046
110	0x3ba42790	0.005009599
111	0xbc38c6ec	-0.011277895
112	0xbca76876	-0.020435553
113	0xbd543609	-0.051809344
114	0xbd3c5ea2	-0.045988686
115	0xbd56181a	-0.05226908
116	0xbd32ca0a	-0.04364971
117	0xbd15c97c	-0.036569104
118	0xbd0ba188	-0.034089595
119	0xbd305318	-0.043047994
120	0x3d83c300	0.06433678
121	0x3d42742e	0.04747408
122	0x3d7d45d8	0.061834186
123	0x3d915304	0.07095912
124	0x3d7fff30	0.062499225
125	0x3d3d177c	0.046164975
126	0xbd8bdbd0	-0.06829035
127	0x3ccdcdbc	0.025122516
128	0x3c996e84	0.018729456
129	0xbd7dd2de	-0.061968677
130	0xbd152c77	-0.036419358
131	0x3ccf1274	0.025277354
132	0x3d81cd58	0.06337994
133	0x3c6b4d70	0.014361724
134	0x3cc0f378	0.023553595
135	0x3d5e39e8	0.054254442
136	0xbd2404d1	-0.040043656
137	0x3d174dae	0.036939315
138	0xb98ed800	-0.00027245283
139	0xbd587c67	-0.052853014
140	0xbd4ffaf6	-0.050776444
141	0xbbdf22f0	-0.006809585
142	0x3c9cfedc	0.019164495
143	0x3cc5cc70	0.024145335
144	0xbbc2ff80	-0.005950868
145	0xbc156cb0	-0.009120151
146	0x3cf1315c	0.029442482
147	0xbd83fcec	-0.064447254
148	0x3c126e10	0.008937374
149	0xbc4f27d4	-0.012643773
150	0x3a0c3a00	0.0005349219
151	0x3c522dd8	0.012828313
152	0x3d866744	0.06562665
153	0x3d091f08	0.03347686
154	0xbcb3c948	-0.021946564
155	0xbce915c4	-0.028452761
156	0x3cf16e2c	0.02947148
157	0xbd8ce5b6	-0.068797514
158	0x3d1ea118	0.03872785
159	0xbc1c7d28	-0.009551324
160	0x3d516922	0.051125653
161	0x3cdd1bd4	0.026990809
162	0x3d7a4114	0.06109722
163	0xbcd5da28	-0.026105002
164	0xbcf983cc	-0.030458353
165	0xbd882fc1	-0.06649733
166	0xbca6449c	-0.020296387
167	0xbbdb4620	-0.006691709
168	0xbc936fa0	-0.017997563
169	0x3c9c211c	0.019058757
170	0xbceb0b52	-0.028691921
171	0xbcf22fb2	-0.029563759
172	0x3d4bddee	0.049772196
173	0x3ba73f70	0.005103998
174	0xbc60bec0	-0.013717353
175	0xbd2964de	-0.04135596
176	0xbca14e18	-0.019690558
177	0xbd474ce0	-0.048657298
178	0xbc814576	-0.015780192
179	0x3d7081b8	0.05871746
180	0xbc45cb34	-0.012072373
181	0x3ac8da40	0.0015323833
182	0xbd7683b2	-0.06018419
183	0xbc7d56d8	-0.0154626
184	0xbd018275	-0.031618554
185	0xbd87a16c	-0.06622586
186	0xbcbbc780	-0.022922277
187	0x3c744910	0.014909998
188	0xbd47367e	-0.048635952
189	0xbac74ec0	-0.0015205964
190	0x3c98e4f4	0.01866386
191	0xbd02653f	-0.031834837
192	0x3cb1f5c4	0.021723635
193	0x3d3d76a2	0.046255715
194	0x3d2a0a56	0.041513763
195	0xbd81073a	-0.063002065
196	0xbd8c8452	-0.068611756
197	0xbd825fc4	-0.06365922
198	0x3cb40868	0.021976665
199	0xba402500	-0.0007329732
200	0xbbd94a90	-0.006631203
201	0x3d81c01a	0.063354686
202	0x3c429430	0.011876151
203	0xbd02f2e8	-0.031969935
204	0xbd707e83	-0.0587144
205	0xbd10da19	-0.035364244
206	0x3b833c80	0.004005015
207	0x3c9124cc	0.017717741
208	0xbd657188	-0.056016475
209	0xbd8660a9	-0.06561405
210	0xbd8029f2	-0.062580004
211	0x3c83bd04	0.01608134
212	0xbd88ea8c	-0.06685361
213	0x3d387f52	0.045043297
214	0x3d5524a0	0.05203688
215	0xbcb03a4c	-0.021512173
216	0xbd921f0e	-0.071348295
217	0xbcc05388	-0.02347733
218	0xbd89cca1	-0.06728483
219	0xbd8ce96d	-0.0688046
220	0x3d392502	0.04520131
221	0xbce07582	-0.027399782
222	0x3d84dda2	0.064875856
223	0x3d82e10e	0.06390582
224	0x3cf8abc4	0.030355342
225	0xbcbfc2ec	-0.023408376
226	0x3cb3c8a0	0.021946251
227	0x39912300	0.00027682632
228	0x3d6fe8a4	0.058571473
229	0xbd86f166	-0.06589012
230	0x3d806e32	0.06271018
231	0xbd62045e	-0.055179946
232	0xbcc65098	-0.024208352
233	0x3cfd28a0	0.03090316
234	0x3c9c1228	0.019051626
235	0xbd3d419e	-0.046205156
236	0x3cd1d798	0.025615498
237	0xbb9af540	-0.004728943
238	0xbd3c584a	-0.045982637
239	0x3c800f94	0.015632428
240	0x3c9186b4	0.017764427
241	0x3b9ede00	0.004848242
242	0xbd7bcd89	-0.06147531
243	0xbd887c70	-0.066643596
244	0xbcbe7fba	-0.023254264
245	0xbd480a1e	-0.048837774
246	0x3c1eff88	0.009704478
247	0xbba127f0	-0.004918091
248	0xbcfc8118	-0.030823275
249	0xbca7adaa	-0.020468552
250	0x3c83a3e8	0.016069368
251	0xbd80378c	-0.06260595
252	0x3d3a5fd4	0.045501545
253	0xbced029a	-0.028931905
254	0xbcb34d5e	-0.021887477
255	0xbd561824	-0.052269116

cnn.0.bias f4 [16]
0	0xbaa11600	-0.0012289882
1	0xbd887591	-0.06663049
2	0x3d31d62a	0.043417133
3	0xbd50f0de	-0.05101096
4	0x3d8a2242	0.067448154
5	0x3d103fae	0.03521698
6	0xbce7ebde	-0.028310712
7	0xbd7be06f	-0.061493333
8	0xbc9140a4	-0.017731018
9	0xbd8efcb0	-0.0698179
10	0x3d77a570	0.060460508
11	0x3c73ce68	0.014880754
12	0x3c955a14	0.01823143
13	0x3bad3c90	0.0052867606
14	0x3d80f036	0.062958166
15	0x3a98df80	0.0011663288

cnn.2.weight f4 [32, 16, 4, 4]
0	0x3c98b2c0	0.018639922
1	0xbcc64b20	-0.024205744
2	0xbd4f39aa	-0.050592102
3	0x3ca55058	0.020179912
4	0xbd3af2b8	-0.04564163
5	0x3d18b6d2	0.037283726
6	0xbd7b6668	-0.06137696
7	0x3c75dc40	0.015006125
8	0x3ce2cff0	0.027687043
9	0xbd0c2b20	-0.034220815
10	0x3d431df6	0.047635995
11	0xbc9e2ce4	-0.019308515
12	0x3d1e0fea	0.038589396
13	0xbbd88c70	-0.0066085383
14	0x3d0182f4	0.031619027
15	0x3d2fa546	0.042882226
16	0xbcf5db58	-0.030011818
17	0x3d7e2368	0.062045485
18	0xbd53c2c4	-0.051699415
19	0x3d0837c8	0.033256322
20	0xbd44922e	-0.04799097
21	0x3d7dca8e	0.06196075
22	0x3c2888f0	0.010286555
23	0xbd2daafe	-0.0423994
24	0x3d33a3b0	0.043857276
25	0x3bd372a0	0.0064528733
26	0x3be0f440	0.0068650544
27	0x3d0f7c2e	0.035030536
28	0x3d282c7c	0.04105805
29	0xbc82eed0	-0.015983015
30	0x3c32b1b8	0.010906629
31	0x3d7b99ec	0.06142609
32	0xbcb79de8	-0.022414163
33	0x3ca0ea80	0.019643068
34	0xbd7f2f0a	-0.06230072
35	0x3d30107e	0.04298448
36	0xbcc60ff8	-0.024177536
37	0x3d1b8af0	0.037974298
38	0x3d2edf0c	0.042693183
39	0x3b0db2a0	0.0021621361
40	0x3d58dd82	0.05294562
41	0xbd1c1a7e	-0.038111202
42	0x3d75f92a	0.060052074
43	0x3c166ee0	0.009181708
44	0xbd09d2e6	-0.033648394
45	0xbc8be494	-0.017076768
46	0xbc61f1e8	-0.013790585
47	0xbc581570	-0.013188705
48	0xbd7b9ef2	-0.06143088
49	0x3d431504	0.047627464
50	0xbbdd6770	-0.0067567155
51	0xbd221104	-0.03956701
52	0xbd6be176	-0.057588063
53	0xbd367478	-0.044544667
54	0x3d226d64	0.039655104
55	0xbd69a4e2	-0.05704201
56	0xbcc07058	-0.02349107
57	0x3c2f58b0	0.010702297
58	0xbc94d468	-0.01816769
59	0x3d165fd8	0.036712497
60	0x3d5027d0	0.05081922
61	0x3d43a9e4	0.047769442
62	0xbd21ed5e	-0.03953301
63	0x3d50fe84	0.051023975
64	0x3ca3fd64	0.020018287
65	0x3bce1310	0.0062888935
66	0x3d5f6c2e	0.054546528
67	0xbcf12908	-0.02943851
68	0x3d7c744c	0.061634347
69	0x3ce18b34	0.027532198
70	0x3d1c3e6c	0.038145468
71	0x3bfb75b0	0.0076739416
72	0xbd07a706	-0.03311827
73	0xbd3093b6	-0.043109618
74	0xbc84a950	-0.016194016
75	0x3d7aaf6c	0.06120245
76	0xbc8bf658	-0.01708524
77	0x3ce3b1a0	0.02779466
78	0x3bbddc70	0.0057941005
79	0xbd7e05dc	-0.062017307
80	0x3d58a520	0.05289185
81	0x3d0cf376	0.03441187
82	0x3d6fd172	0.058549352
83	0x3ce9117c	0.02845072
84	0xbbea8f70	-0.0071582124
85	0xbd5f386c	-0.054497167
86	0x3d303832	0.043022342
87	0xbd12bd06	-0.035824798
88	0xbd15248e	-0.036411814
89	0x3d792e7c	0.060835347
90	0x3c13c070	0.009018049
91	0xbd00baca	-0.031428136
92	0xbd0dd700	-0.034628868
93	0x3d3d6ac0	0.046244383
94	0x3d223b80	0.039607525
95	0x3be6d470	0.0070443675
96	0x3d392016	0.045196615
97	0x3d08ae12	0.03336913
98	0xbd7cb128	-0.061692387
99	0xbc18bdf8	-0.009322636
100	0xbd2e4ca6	-0.042553566
101	0x3d5525e8	0.052038103
102	0x3c9050a8	0.017616585
103	0x3cd8a254	0.026444592
104	0x3d067644	0.03282763
105	0xbbdb8950	-0.0066997185
106	0xbab0b500	-0.0013481677
107	0xbd74d26c	-0.059770986
108	0x3c5a4a68	0.013323404
109	0xbd6705b4	-0.056401923
110	0xbd5bc90a	-0.053658523
111	0x3c987fe8	0.018615678
112	0x3ca44fe4	0.020057626
113	0xbaa61880	-0.0012672096
114	0x3c2c69e0	0.010523289
115	0x3d630d32	0.055432506
116	0x3d5187ce	0.051154904
117	0xbc9b9d00	-0.018995762
118	0xbd7ae51c	-0.061253652
119	0xbd61fcdc	-0.055172786
120	0x3d1f6364	0.038913146
121	0xbd7b9bde	-0.061427943
122	0x3cc57614	0.024104156
123	0xbd48bb5a	-0.049006797
124	0xbd4f1b96	-0.050563417
125	0xbb8b07c0	-0.004242867
126	0x3d11a382	0.035556324
127	0xbd422e2a	-0.047407307
128	0x3d667e94	0.056273058
129	0x3cd1dc9c	0.02561789
130	0x3aeebac0	0.0018213615
131	0xbd0752f6	-0.033038102
132	0xbbfa55d0	-0.007639624
133	0xbc9cacac	-0.019125305
134	0xbd6cd18a	-0.05781702
135	0xbd208ab4	-0.039194778
136	0xbc0cad50	-0.008586243
137	0x3d3183a2	0.043338425
138	0xbca5cd20	-0.020239413
139	0x3cbd3d24	0.023100443
140	0x3d131954	0.035912827
141	0xbcf26a90	-0.029591829
142	0xbbc687a0	-0.006058648
143	0xbba03f30	-0.004890345
144	0xbd4d96f4	-0.05019279
145	0x3d55f756	0.05223783
146	0x3d442526	0.04788699
147	0xbd0856ae	-0.03328579
148	0xbc02f560	-0.007993072
149	0x3c48d1b8	0.012257032
150	0xbc085698	-0.008321427
151	0xbcf1f02c	-0.029533468
152	0x3cf9d8b8	0.030498847
153	0xbd0985ea	-0.033574976
154	0xbce26334	-0.027635194
155	0xbcf8f230	-0.030388921
156	0x3c663898	0.014051579
157	0x3c5476a0	0.0129677355
158	0xbb0ad7a0	-0.0021185651
159	0xbd6e13ee	-0.058124475
160	0x3d2f0a58	0.042734474
161	0xbb8c1bd0	-0.0042757764
162	0xbd7f73da	-0.062366344
163	0x3c6a5890	0.0143033415
164	0x3d10f76a	0.035392202
165	0xbd5baa68	-0.05362931
166	0x3d4f561c	0.05061923
167	0xbd0e5510	-0.03474909
168	0xbd161fea	-0.03665153
169	0x3d48fd58	0.049069732
170	0xbd51fc74	-0.05126615
171	0xbcab3f4c	-0.020904206
172	0xbd58db5a	-0.052943565
173	0x3c31b5f0	0.0108466
174	0x3d4c06f8	0.049811333
175	0x3d3494ee	0.044087343
176	0xbc6cf448	-0.014462538
177	0x3cb18074	0.021667697
178	0x3d4c33e0	0.04985416
179	0xbd2fdaa6	-0.04293313
180	0xbd3f87b6	-0.046760283
181	0x3ca75328	0.020425394
182	0xbd6e35b4	-0.058156684
183	0x3c9ac7e8	0.01889415
184	0x3d430232	0.047609515
185	0x3d4170e2	0.047226794
186	0xbd067e18	-0.032835096
187	0xbd264668	-0.04059449
188	0xbd2360f4	-0.039887384
189	0x3a839600	0.001003921
190	0x3d512702	0.05106259
191	0x3d161a5e	0.03664624
192	0x3bae3ab0	0.0053170547
193	0xbd701230	-0.058611095
194	0xbd34acde	-0.04411017
195	0xbd4181ca	-0.047242917
196	0xbbdfbee0	-0.006828174
197	0xba183080	-0.0005805567
198	0xbd4e549e	-0.050373666
199	0xbd1fa6b0	-0.038977325
200	0xbc2aaee0	-0.01041767
201	0xbc4e5de0	-0.012595624
202	0x3d739c3c	0.05947517
203	0xbc6f8c98	-0.0146209225
204	0x3c04e950	0.008112267
205	0x3d2c2dfa	0.042036034
206	0x3d6422d0	0.055697262
207	0x3c7224a0	0.01477924
208	0xbd126f5c	-0.03575073
209	0xbd7687d2	-0.060188122
210	0xbc83551c	-0.016031794
211	0xbc90881c	-0.017643027
212	0xbd2e52ea	-0.04255954
213	0x3c7983b0	0.015229151
214	0x3b563560	0.0032685623
215	0xbc0f4d90	-0.00874652
216	0xbd587154	-0.052842453
217	0xbc341628	-0.010991611
218	0x3d2b1ab2	0.041773506
219	0xbd5c9d60	-0.053861022
220	0x3d072856	0.03299745
221	0xbb853d20	-0.0040661246
222	0x3d610604	0.054937378
223	0x3c6afcb8	0.014342479
224	0xbd491b5e	-0.049098365
225	0xbc90f600	-0.017695427
226	0xbd503eda	-0.05084119
227	0x3c7d2db8	0.015452795
228	0xbd0cd090	-0.03437859
229	0x3d43f744	0.047843233
230	0x3cfe444c	0.031038426
231	0x3d1b80c0	0.037964582
232	0xbd2a2a76	-0.0415444
233	0xbbdde870	-0.0067720935
234	0x3d3f5498	0.046711534
235	0xbd369664	-0.044577017
236	0xbcaff828	-0.021480635
237	0x3c50d0d0	0.012745097
238	0xbcc29b84	-0.023755796
239	0x3d47c5a0	0.048772454
240	0x3bd1d3f0	0.0064034387
241	0x3d24127e	0.040056698
242	0xbd16a782	-0.03678084
243	0xbd73c254	-0.059511498
244	0x3d357eb8	0.0443103
245	0xbd10032a	-0.035159267
246	0xbd5e9ac2	-0.054346807
247	0x3b6a8c00	0.0035789013
248	0x3d4085b6	0.047002517
249	0x3d437896	0.04772242
250	0x3bec1550	0.007204689
251	0xbc9281a8	-0.01788409
252	0x3d46be44	0.048521295
253	0x3cafa838	0.021442518
254	0x3c9b1a50	0.018933445
255	0x3d0d75c6	0.034536146

cnn.2.bias f4 [32]
0	0x3cd8157c	0.026377432
1	0x3cc18e74	0.023627497
2	0x3d78e48e	0.06076484
3	0x3cd1b020	0.025596678
4	0xbd2fd6fc	-0.042929634
5	0x3cfeb0e8	0.031090215
6	0xbcad8afc	-0.021184437
7	0xbc9d086c	-0.019169055
8	0x3c947af4	0.018125035
9	0xbd277e50	-0.040891945
10	0x3d008d34	0.03138466
11	0xbd3f7162	-0.04673899
12	0xbc8779d0	-0.016537577
13	0x3d31401c	0.04327403
14	0xbd4a108e	-0.049332194
15	0x3d3fb700	0.04680538
16	0xbd3c77dc	-0.046012744
17	0x3d625b4a	0.05526284
18	0xbbc4ed40	-0.0060097277
19	0xbd79cdca	-0.06098727
20	0x3d3b212e	0.04568594
21	0x3cf75e74	0.030196406
22	0xbd63e466	-0.05563774
23	0x3d5d738a	0.054065265
24	0x3d5f1472	0.054462858
25	0x3cc791e4	0.024361558
26	0x3d0e9904	0.034813896
27	0x3d5e6074	0.054291204
28	0xbcb2261c	-0.021746688
29	0xbb277040	-0.0025549084
30	0x3d767476	0.06016966
31	0x3ba35e20	0.004985586

cnn.4.weight f4 [32, 32, 3, 3]
0	0x3c0555cc	0.008138131
1	0x3b609e40	0.0034274012
2	0xbd2d5a97	-0.04232272
3	0x3c431b1c	0.011908319
4	0xbc7c2c70	-0.015391454
5	0x3d109d23	0.035306107
6	0xbc4c3b3c	-0.012465294
7	0xbd0e0426	-0.034671925
8	0xbc118618	-0.008882068
9	0x3ce71a76	0.02821086
10	0x3d4e8893	0.050423216
11	0x3d5ff333	0.054675292
12	0x3d31e255	0.043428738
13	0xbc6944f8	-0.014237635
14	0x3c3b1f14	0.011420984
15	0x3d7132c1	0.058886293
16	0x3d193993	0.037408423
17	0xb9796f00	-0.00023787841
18	0x3d6b2327	0.05740657
19	0xbcf2cd8b	-0.029639026
20	0x3a915b40	0.0011089817
21	0xbd64df97	-0.055877294
22	0xbd5c3275	-0.053759057
23	0xbc3e0554	-0.01159795
24	0xbd6bb648	-0.057546884
25	0xbc036fa0	-0.008022219
26	0xbc4273c8	-0.011868425
27	0xbbc518a8	-0.006014902
28	0x3caac576	0.02084611
29	0x3d4ce509	0.050023112
30	0xbd0a085c	-0.03369938
31	0xbd3ac1a8	-0.04559484
32	0x3b7a42f0	0.003818687
33	0x3c7a3254	0.015270788
34	0xbbdba6b8	-0.006703224
35	0xbd0c9c02	-0.03432847
36	0x3d35210f	0.04422098
37	0x3ccdc412	0.025117908
38	0xbc67afb4	-0.014141012
39	0x3ad34660	0.0016118996
40	0xbbe48710	-0.0069741085
41	0xbd52ca0d	-0.051462222
42	0xbc72a888	-0.014810689
43	0x3d1c4381	0.038150314
44	0xb9a93180	-0.00032271072
45	0x3d553957	0.052056637
46	0xbd5cdee2	-0.053923495
47	0xbc1b4c04	-0.009478573
48	0x3ca7af96	0.020469468
49	0xbce6c846	-0.02817167
50	0x3b825528	0.0039774366
51	0x3c5741fc	0.0131382905
52	0xbd249afc	-0.040186867
53	0xbd3bdb14	-0.045863226
54	0x3d11563d	0.035482634
55	0xbcc8c362	-0.024507228
56	0x3c33f26c	0.010983091
57	0x3c643d4c	0.01393063
58	0x3d56aa31	0.0524084
59	0x3d3945e5	0.045232672
60	0x3d1821bd	0.03714155
61	0x3d128b19	0.035777185
62	0x3d279857	0.040916767
63	0x3c5b0a54	0.013369162
64	0x3beda158	0.0072518997
65	0x3d396823	0.04526533
66	0x3d19205b	0.037384372
67	0xbd5706fd	-0.0524969
68	0x3d15205b	0.03640781
69	0xbc917226	-0.017754626
70	0xbd127eeb	-0.03576557
71	0xbad96360	-0.0016585402
72	0x3b9bd0b8	0.004755106
73	0x3d60ac49	0.054851804
74	0xba8a4140	-0.001054801
75	0xbd169618	-0.036764234
76	0x3d2af8c5	0.04174115
77	0xbd14e19a	-0.036347963
78	0xbcb28728	-0.021792963
79	0x3cc0d24a	0.023537774
80	0x3c95e98e	0.018299844
81	0x3c90a3d6	0.017656248
82	0xbc358d7c	-0.011081096
83	0x3d05e185	0.032685775
84	0x3c982faa	0.018577415
85	0xbcdc67ac	-0.026904903
86	0x3d33a487	0.043858077
87	0x3d645717	0.055747118
88	0x3c9cba46	0.01913179
89	0x3d0963e9	0.033542547
90	0x386ee800	5.695969e-05
91	0x3c20ca9c	0.009813931
92	0x3d533337	0.051562514
93	0xbd5ada6f	-0.05343097
94	0xbbbf06e8	-0.0058296807
95	0xbc058430	-0.008149192
96	0xbcd3399a	-0.025784303
97	0x3c79c9ac	0.015245836
98	0xbd52e382	-0.0514865
99	0xbc73c6e4	-0.014878962
100	0x3d5eaa37	0.05436155
101	0x3d43df39	0.047820304
102	0x3ca52116	0.020157378
103	0x3c9e85fa	0.019350994
104	0xbd4eef3d	-0.050521124
105	0xbd2fd6c4	-0.042929426
106	0x3d154089	0.0364385
107	0xbce6d353	-0.02817694
108	0x3c1ac78c	0.00944699
109	0x3d6165a9	0.05502859
110	0x3d571857	0.052513447
111	0x3ca5fcae	0.020262089
112	0x3ce10f66	0.027473163
113	0xbc208bf8	-0.009798996
114	0x3d1999d5	0.03750022
115	0x3cdaaec2	0.02669466
116	0x3d066261	0.032808665
117	0xbd6e26fc	-0.058142647
118	0x3ccaa956	0.024738949
119	0x3d650519	0.055913065
120	0xbd6b7db1	-0.057492916
121	0x3d21b967	0.039483454
122	0xbd282790	-0.041053355
123	0x3cdbdfca	0.02684011
124	0x3c9eec22	0.019399706
125	0x3c705aac	0.014670055
126	0x3d326471	0.04355282
127	0xbd084dd0	-0.033277333
128	0xbcc1ff9a	-0.02368145
129	0x3bc087f8	0.0058755837
130	0xbd4dc992	-0.05024106
131	0xbd6e3242	-0.0581534
132	0xbd25094e	-0.040292077
133	0xbd262f56	-0.040572487
134	0x3b1c26a0	0.0023826733
135	0x3839f000	4.4330955e-05
136	0xbd37566a	-0.044760145
137	0x3d50cb1b	0.050974946
138	0x3d334a1d	0.04377185
139	0x3d2c20bd	0.04202341
140	0x3cb3e9d2	0.02196208
141	0x3d705d19	0.058682535
142	0xbce057f4	-0.02738569
143	0x3d2defc9	0.042465005
144	0x3bc22108	0.005924348
145	0x3d2786cf	0.040900048
146	0xbcd90b76	-0.026494723
147	0x3c9a9fa2	0.018874947
148	0x3d609025	0.054824967
149	0xbcc6e056	-0.024276894
150	0x3d112b7b	0.035441857
151	0x3d2f994d	0.04287081
152	0xbc8c0d9a	-0.01709633
153	0xbbb77f58	-0.0055998974
154	0x3d66e1fb	0.056367856
155	0x3bc766b8	0.006085243
156	0x3cd3c49a	0.025850583
157	0x3cb31862	0.021862213
158	0x3d6f9ce1	0.05849922
159	0xbccf07a4	-0.025272198
160	0xbc5eb80c	-0.013593685
161	0xbc9da440	-0.01924336
162	0x3d18e371	0.03732628
163	0xbcb89448	-0.022531644
164	0xbc53f004	-0.012935642
165	0x3cd8f7e2	0.026485387
166	0x3cbb42ae	0.022858944
167	0x3d39184f	0.045189198
168	0xbd59da3c	-0.05318664
169	0x3d4e49ef	0.050363477
170	0xbc310c0c	-0.010806095
171	0x3ce3bfde	0.02780145
172	0x3d28b137	0.04118463
173	0xbc8561b4	-0.01628194
174	0x3c80bb82	0.01571441
175	0x3ce2ebf6	0.027700406
176	0x3d3c3067	0.045944598
177	0x3b91b968	0.004447151
178	0x3d0ef829	0.034904633
179	0xbcb45a20	-0.022015631
180	0xbd67ff6c	-0.056640074
181	0xbd599bdc	-0.053127155
182	0xbccdda54	-0.025128521
183	0xbacc1e00	-0.0015572906
184	0xbd0277a8	-0.031852394
185	0x3d219cd5	0.039456207
186	0x3d113df5	0.035459477
187	0xbd5e3ebc	-0.054259047
188	0xbd38687a	-0.04502151
189	0x3c481d54	0.012214024
190	0x3cbd58ea	0.023113687
191	0x3d4fa675	0.050695855
192	0x3d0a8d2b	0.033826035
193	0xbcedd0dd	-0.029030258
194	0xbd39300e	-0.045211844
195	0xbd5664a8	-0.052342087
196	0xbd472c52	-0.04862625
197	0x3cfb5306	0.030679237
198	0xbce05dfe	-0.027388569
199	0xbd4c2ede	-0.049849384
200	0xbd2e45b2	-0.042546935
201	0xbd6d26c2	-0.05789829
202	0x3d4e1b93	0.050319266
203	0x3cb70272	0.022340033
204	0xbd5a9f48	-0.05337456
205	0xbd382bbe	-0.04496359
206	0xbc50682c	-0.012720149
207	0x3b28c840	0.0025754124
208	0xbd293d8a	-0.041318454
209	0xbcd8f79e	-0.02648526
210	0xbd2d9d25	-0.042386193
211	0xbcd21bf2	-0.025648091
212	0xbd2c5200	-0.04207039
213	0x3b97dab8	0.0046342276
214	0x3d4aae55	0.049482662
215	0x3c34619c	0.0110096
216	0xbd0d96bc	-0.03456758
217	0x3d55b1c1	0.052171472
218	0xbd5cffaa	-0.053954758
219	0xbd363c23	-0.044490945
220	0x3c75f2ac	0.015011471
221	0xbce6d2c7	-0.028176678
222	0x3cfb965a	0.030711342
223	0x3cbb1b2a	0.022840101
224	0xbd31ad25	-0.043378014
225	0x3c85736a	0.016290385
226	0x3c619264	0.013767812
227	0xbca44f38	-0.020057306
228	0xbd31baa6	-0.043390892
229	0xbd6ad6e0	-0.057333827
230	0x3c995dc2	0.018721465
231	0x3d4c8eaf	0.04994076
232	0x3caa54ea	0.020792443
233	0xbd28ef7a	-0.041244008
234	0x3cf3f9ba	0.029782165
235	0x3d2401a5	0.04004063
236	0x3c1c94e4	0.009556983
237	0xbd137bec	-0.036006853
238	0xbbcc2690	-0.006230183
239	0xbc6bbb08	-0.014387853
240	0x3d0fea95	0.035135824
241	0x3cc1ef4a	0.023673672
242	0xbd143268	-0.036180884
243	0x3d4b7489	0.049671683
244	0x3d08b253	0.03337319
245	0xbc1a6214	-0.009422798
246	0xbc8a51c6	-0.016884696
247	0xbc4b3484	-0.012402657
248	0x3d0b74a1	0.034046773
249	0xbc2890d8	-0.01028844
250	0x3d295695	0.041342337
251	0xbd125924	-0.035729542
252	0x3c5cf8ac	0.013487022
253	0xbd2e297c	-0.04252003
254	0x3aac4240	0.0013142303
255	0x3c8692ba	0.016427387

cnn.4.bias f4 [32]
0	0xbc27d14c	-0.010242771
1	0x3c8b157a	0.016978014
2	0xbcde42de	-0.027131494
3	0xbd4d85f8	-0.05017659
4	0xbad79100	-0.0016446412
5	0x3d383527	0.044972565
6	0xbbe44e60	-0.006967351
7	0xbc92f12e	-0.017937269
8	0xbd65100b	-0.055923503
9	0xbd69b67a	-0.05705879
10	0x3c9bf17e	0.01903605
11	0x3c9329ce	0.01796427
12	0xbd70c54e	-0.058781914
13	0x3c03c454	0.008042414
14	0xbd514fed	-0.051101614
15	0x3d4304bd	0.04761194
16	0xbd20a2c6	-0.039217733
17	0x3d151981	0.036401276
18	0xbd1c3650	-0.038137734
19	0x3d458ea7	0.048231747
20	0xbd21f8a8	-0.039543778
21	0x3c2d622c	0.010582488
22	0xbc805b80	-0.01566863
23	0x3d37fe59	0.0449203
24	0x3d2ebf07	0.042662647
25	0xbd5efad4	-0.054438427
26	0x3ca481f6	0.020081501
27	0x3bb1aa88	0.0054219402
28	0x3c9f870a	0.019473571
29	0xbca5f05a	-0.02025621
30	0xbb790a40	-0.0038000494
31	0x3d120107	0.03564551

action_layer.0.weight f4 [16, 11264]
0	0x38835d80	6.2639825e-05
1	0x3b6e1490	0.0036328174
2	0x39ed0400	0.00045207143
3	0xbc07b35b	-0.008282508
4	0xbbc0ecc4	-0.0058875997
5	0x3a9a00e8	0.0011749538
6	0x3c1227d0	0.008920625
7	0xbb9f8cb0	-0.004869066
8	0x3b1c1b40	0.0023819953
9	0x3a090040	0.00052261725
10	0xba2b2960	-0.00065292977
11	0x39b5ff80	0.00034713373
12	0x3b985452	0.0046487236
13	0x3b2397b8	0.0024962258
14	0xbb033ddc	-0.0020025885
15	0xbc0a4805	-0.008440022
16	0x3b452764	0.0030083293
17	0xbbe60066	-0.0070190905
18	0x3b285c34	0.0025689723
19	0x3bfea078	0.007770594
20	0xbae221b0	-0.0017252471
21	0xba622f70	-0.00086282846
22	0x3a28a2e0	0.00064329617
23	0xba8abd98	-0.0010585068
24	0xbc11047c	-0.008851167
25	0xbb26d13c	-0.0025454303
26	0x3b9372ea	0.004499783
27	0x3b219f34	0.0024661543
28	0x3c19269a	0.009347582
29	0xbaf00efc	-0.0018315013
30	0x3bc67d94	0.0060574505
31	0xb9067780	-0.00012823753
32	0x3aaf2238	0.0013361638
33	0x3bb16936	0.0054141534
34	0x3c0da152	0.008644419
35	0x3bef121c	0.00729586
36	0x3c142230	0.009041354
37	0xbbfb232e	-0.007664106
38	0xbbe90369	-0.007111002
39	0x3bf2f9a8	0.0074150153
40	0xbacdf1e0	-0.0015712343
41	0xbac095c0	-0.0014693066
42	0xbc17a494	-0.009255547
43	0xbc1290a1	-0.008945615
44	0x39aa4ec0	0.000324836
45	0xbb20927e	-0.0024501379
46	0x3baed536	0.0053354753
47	0x3bc4f712	0.0060108984
48	0x3b971c4a	0.0046115266
49	0xbb5ab68c	-0.0033372967
50	0xbb8e6a89	-0.004346196
51	0x3bb765d4	0.0055968557
52	0x3a1d3860	0.0005997475
53	0xbbabb953	-0.005240598
54	0x3c123d64	0.0089257695
55	0x3b50bd7c	0.0031851223
56	0x3be7abec	0.007070055
57	0x3b0f04b8	0.002182288
58	0xba958630	-0.0011407789
59	0xbb5c853c	-0.003364875
60	0x3be626cc	0.007023668
61	0xba8a9e78	-0.0010575792
62	0xbb95c7fb	-0.0045709587
63	0xbbd581d1	-0.0065157195
64	0xbb933b20	-0.0044931322
65	0xbb4d1b12	-0.0031296653
66	0x3a793680	0.00095067173
67	0xba2ab2d0	-0.00065116305
68	0xbbf90ee8	-0.007600654
69	0xba055ae0	-0.0005087089
70	0xbbeec9ae	-0.0072872257
71	0xbc1250e4	-0.008930419
72	0xbc1785e9	-0.009248235
73	0xbc060391	-0.008179561
74	0xba9b3f10	-0.0011844356
75	0x3bf364a4	0.007427769
76	0x3c184426	0.009293592
77	0x3b1e92a0	0.0024196282
78	0xbbaecf19	-0.0053347466
79	0x3bc2356c	0.0059267785
80	0xbadaa430	-0.0016681012
81	0x3be9ac40	0.0071311295
82	0xbbbc2996	-0.005742262
83	0x3b8861bc	0.0041620415
84	0x3bd0ad60	0.006368324
85	0x3b7111cc	0.003678429
86	0x3b078054	0.0020675855
87	0x38700000	5.722046e-05
88	0xba962408	-0.001145483
89	0x3be2b71c	0.006918801
90	0xbb636ef8	-0.0034703594
91	0xbc0d3154	-0.008617718
92	0x39f3df80	0.00046515092
93	0x3b53c9d4	0.0032316344
94	0xb9398480	-0.00017692335
95	0xbc19a7ba	-0.009378368
96	0xbc16aa9e	-0.009195952
97	0x3c111476	0.008854976
98	0xb8e90e80	-0.000111130066
99	0x3b324038	0.0027198922
100	0x3c0934d8	0.008374415
101	0xbba5a739	-0.005055335
102	0xbb3f2178	-0.0029164236
103	0xba66ae60	-0.00087997876
104	0x3b827286	0.0039809374
105	0x3b0a98b8	0.0021148156
106	0xbbd74c7e	-0.006570398
107	0x3c1314b2	0.008977102
108	0x3aa8b9c0	0.0012872741
109	0xbb3da42c	-0.0028936965
110	0x3b9bd796	0.0047559245
111	0x3c00d0e4	0.007862303
112	0xbc0ebb5d	-0.008711663
113	0x3c185fd8	0.009300195
114	0xbc099980	-0.008398414
115	0xbb89dfbb	-0.004207579
116	0xbbf66d94	-0.007520387
117	0x3ac0df08	0.0014714906
118	0x3a9ce4f8	0.0011970093
119	0x3b9553e8	0.0045571215
120	0xbb9eba4a	-0.0048439847
121	0x3aa26bf0	0.0012391787
122	0xbb206496	-0.0024474016
123	0x3b7715cc	0.00377022
124	0x3acde4e8	0.0015708478
125	0x3c066cb0	0.008204624
126	0x3bacc6d2	0.0052727247
127	0x3bdf0480	0.0068059564
128	0xb9ad38a0	-0.0003303932
129	0xba928fd0	-0.0011181775
130	0x3bdc0704	0.0067147035
131	0xbbcdf302	-0.0062850723
132	0xb82ed100	-4.167948e-05
133	0x3b233d90	0.002490852
134	0x3c13a9de	0.009012667
135	0xbbd7a187	-0.006580535
136	0xba75f600	-0.0009382665
137	0xbbff6cbd	-0.007794945
138	0x3b0b0148	0.002121048
139	0x3bc03ff6	0.0058669997
140	0xbb018694	-0.0019764053
141	0x3bc14826	0.0058984933
142	0xbb1f9dea	-0.0024355599
143	0x3b99f83e	0.004698782
144	0xbbbc4776	-0.0057458235
145	0x3bc8c3aa	0.0061268406
146	0xb94fb980	-0.00019810162
147	0xbbce61fc	-0.0062983017
148	0x3ae82490	0.0017711092
149	0x3bdfab10	0.006825812
150	0xbc0f95b8	-0.008763723
151	0xba0a6bc0	-0.0005280338
152	0x3b05fa5c	0.0020443415
153	0xbc0ee985	-0.008722668
154	0x3c0a76d4	0.008451182
155	0x3bdb9d7c	0.006702123
156	0xbbc21162	-0.0059224823
157	0xbbd2798e	-0.006423182
158	0x3bf07d30	0.0073391423
159	0xbbc9ab21	-0.0061544334
160	0xbc03c21f	-0.008041888
161	0x391f4300	0.00015188381
162	0x3c12177e	0.008916734
163	0xbc0c9da9	-0.008582511
164	0x3aafc4c0	0.0013410076
165	0xbbee3cd2	-0.007270434
166	0xbc10915c	-0.008823719
167	0xbbe63598	-0.007025432
168	0x3c0facf8	0.008769266
169	0x3bc2a340	0.005939871
170	0x3b1fe75c	0.0024399376
171	0x3bb604e0	0.0055547804
172	0x3bb162f8	0.0054134093
173	0xbb8f6de7	-0.004377115
174	0xbb1b8094	-0.0023727762
175	0x3b72b088	0.003703149
176	0xbbf99f9e	-0.007617905
177	0xbbc4a348	-0.00600091
178	0x3b6d5b78	0.003621785
179	0x3b8a3ac4	0.004218431
180	0x3bb9ddb8	0.005672183
181	0xbbb36109	-0.005474214
182	0x3bed2c00	0.007237911
183	0xbc13aa3d	-0.009012756
184	0xba25aa70	-0.00063196477
185	0xbc14fb3f	-0.009093105
186	0xbaffa910	-0.0019505341
187	0x3bde6ee4	0.0067881215
188	0xbb2cae9e	-0.0026349197
189	0x3a95e410	0.0011435766
190	0xbbe552ba	-0.006998387
191	0xbba9d525	-0.0051828795
192	0x3b9f6030	0.0048637614
193	0xbbe5e73e	-0.0070160916
194	0x3b156a10	0.0022798814
195	0x3bc31240	0.0059531033
196	0xbb1ed280	-0.0024234354
197	0x3b8e5d58	0.0043446235
198	0x3bb383de	0.0054783663
199	0xbbe4c7a3	-0.0069818064
200	0xbc1979c9	-0.009367415
201	0xbbdf01a4	-0.0068056155
202	0x3bd23888	0.0064154305
203	0xbb1cc858	-0.0023923125
204	0xbc08a896	-0.008340975
205	0x3b5ebd34	0.0033987286
206	0x3be28ef4	0.006914014
207	0x3bb2d388	0.0054573454
208	0x3bf00f18	0.007326018
209	0x3bf0ef58	0.0073527507
210	0x3c15216a	0.009102205
211	0x3ac223c0	0.001481168
212	0xbbd47d1d	-0.006484641
213	0x3be38a50	0.0069439784
214	0x3b02e4b0	0.0019972734
215	0xb6bc0800	-5.603768e-06
216	0x3c10d5b2	0.008840011
217	0xbaf40438	-0.001861698
218	0xbbb8ed3d	-0.0056435154
219	0xb9955de0	-0.00028489437
220	0xbbe9bc0a	-0.0071330117
221	0x3c19d91c	0.009390142
222	0xbaa51d00	-0.0012597144
223	0xbb245480	-0.002507478
224	0x3b85be5c	0.0040815305
225	0x3b3ec7a4	0.0029110694
226	0xbc15d676	-0.00914537
227	0xbadff540	-0.001708664
228	0xba98c008	-0.001165391
229	0x3a4bf8b0	0.0007780893
230	0xbae716f0	-0.0017630737
231	0x3bc52b80	0.0060171485
232	0x3bd04b58	0.006356638
233	0x3b2bff4c	0.0026244698
234	0xb9d642a0	-0.000408669
235	0x3b982514	0.004643092
236	0x3ba8e41e	0.005154147
237	0x3c051ede	0.008125035
238	0xbb875392	-0.0041298354
239	0xbbc3b5a9	-0.0059725833
240	0xbbc84610	-0.0061118677
241	0xba98c8c8	-0.0011656517
242	0x39870f00	0.00025760382
243	0x3bdfc2f8	0.006828662
244	0xbbd07a7c	-0.0063622575
245	0xbc138ab2	-0.0090052355
246	0x3b4a882c	0.0030903919
247	0x3978b980	0.00023720227
248	0xbbc2dd92	-0.0059468234
249	0xbbd1eecc	-0.0064066406
250	0x3c19256a	0.009347299
251	0xbc0289e2	-0.007967444
252	0x3a94dd10	0.0011357386
253	0xbb88256e	-0.0041548526
254	0xbb8ceb86	-0.0043005375
255	0x3b856464	0.0040708054

action_layer.0.bias f4 [16]
0	0x3b7ae09c	0.003828085
1	0x3b624f38	0.0034532081
2	0xbbace3a9	-0.0052761626
3	0x3adf7718	0.0017049043
4	0x3bd81cc8	0.006595228
5	0x3bb15916	0.005412231
6	0xbc18c2ed	-0.009323818
7	0xba86fb18	-0.001029822
8	0x3b6b4474	0.0035898956
9	0xbb7f0dae	-0.0038918066
10	0x3c17cdc4	0.009265367
11	0x3c0a0114	0.008423109
12	0xbc029dc5	-0.0079721855
13	0xbadd47c4	-0.001688235
14	0x3a17cf80	0.0005791113
15	0xba023010	-0.00049662683

action_layer.2.weight f4 [8, 16]
0	0x3e6abaee	0.2292287
1	0xbd0a32c8	-0.033739835
2	0x3e3464d4	0.17616588
3	0xbe2ef9f8	-0.17087543
4	0x3daca8d8	0.08430642
5	0xbe637e6c	-0.22216195
6	0x3d425930	0.047448337
7	0x3d486d38	0.048932284
8	0xbd8b74ec	-0.068094105
9	0x3e5e2826	0.21695003
10	0xbcb93bc0	-0.022611499
11	0xbcc85d20	-0.024458468
12	0xbcfc6cc0	-0.030813575
13	0x3d80eb98	0.06294936
14	0xbe2e030a	-0.16993347
15	0x3d7a5990	0.06112057
16	0xbd4287f0	-0.04749292
17	0xbde51000	-0.111846924
18	0xbd97bb48	-0.07408768
19	0x3e15c088	0.14624226
20	0xbdc3e938	-0.09565967
21	0x3d7525a8	0.059850365
22	0xbd8b0cd4	-0.06789556
23	0xbdcd4658	-0.10023183
24	0x3d73b920	0.05950272
25	0xbd34d2e0	-0.04414642
26	0xbd271f70	-0.040801466
27	0xbe6b189e	-0.2295861
28	0xbc065e40	-0.008201182
29	0x3cbeca50	0.02328983
30	0x3ac30900	0.0014880002
31	0x3e4eaf84	0.20184141
32	0x3e0bb148	0.13641846
33	0x3e3b05d0	0.18263936
34	0xbe2a64fa	-0.16640082
35	0xbe74dc98	-0.23912275
36	0x3e1bb4b6	0.15205655
37	0xbe567356	-0.20942435
38	0xbd39cac8	-0.045359403
39	0x3db167d4	0.08662382
40	0x3e668d86	0.22514924
41	0xbddf11b8	-0.108920515
42	0x3d5c2618	0.053747267
43	0x3d746b00	0.059672356
44	0x3dc8f298	0.09811896
45	0xbca25d50	-0.019819885
46	0xbd698010	-0.057006896
47	0xbddb4a14	-0.10707489
48	0xbe759848	-0.23983872
49	0xbddc6fe8	-0.10763532
50	0x3e3715c4	0.17879397
51	0x3e55096c	0.20804375
52	0x3dfb24e0	0.12262893
53	0x3e2a6dbe	0.16643426
54	0x3d189f60	0.037261367
55	0xbe1dccb0	-0.15410113
56	0xbe294c4c	-0.16533011
57	0x3d3664f0	0.044529855
58	0xbe733794	-0.2375167
59	0xbe7eac62	-0.24870446
60	0x3df6348c	0.12021741
61	0xbb019b00	-0.0019776225
62	0x3e056086	0.13025102
63	0xbdcc09f8	-0.09962839
64	0xbe663c6a	-0.22483984
65	0xbc3b8c20	-0.011446983
66	0xbd4d4d08	-0.05012229
67	0x3dc5b8a0	0.09654355
68	0x3dd499a0	0.10380864
69	0xbd97ed40	-0.07418299
70	0xbdbffc78	-0.093743265
71	0x3e29345e	0.16523883
72	0x3dc4e7e4	0.09614542
73	0xbd4721c8	-0.0486162
74	0xbe70c912	-0.23514202
75	0xbe1cd7fa	-0.15316764
76	0xbdec6668	-0.1154297
77	0xbddec160	-0.10876727
78	0x3a490600	0.00076684356
79	0xbccba5e0	-0.024859369
80	0x3e74d37a	0.23908797
81	0x3e0270ce	0.12738344
82	0xbe125b10	-0.1429255
83	0xbe5d17ac	-0.21591061
84	0x3e012c6a	0.12614599
85	0x3de844b0	0.11341226
86	0xbe03b386	-0.12861452
87	0x3e7972da	0.24360219
88	0x3e3a39fe	0.18186185
89	0x3d271dd0	0.040799916
90	0xbe7b9b68	-0.24571002
91	0x3e697e20	0.22802019
92	0xbb60fe80	-0.0034331381
93	0xbd25f240	-0.04051423
94	0xbcc8fe50	-0.024535328
95	0xbdaaf27c	-0.083470315
96	0xbd99ada8	-0.075038254
97	0xbd81a3cc	-0.0633007
98	0xbe533d72	-0.20628908
99	0xbe17b838	-0.14816368
100	0xbda9d3b8	-0.08292335
101	0xbdbbdf54	-0.09173456
102	0xbd4ed310	-0.050494254
103	0x3e4e5aec	0.20151871
104	0xbda24bb0	-0.079245925
105	0xbe29b9bc	-0.16574758
106	0xbdb21cc8	-0.08696896
107	0xbe6d1e9c	-0.23156208
108	0xbe1d4f04	-0.15362173
109	0xbe7a421c	-0.24439281
110	0x3e201abc	0.15635198
111	0xbcf2aa00	-0.029622078
112	0x3d1a3850	0.03765136
113	0xbc8125a0	-0.015765011
114	0x3e596324	0.21229225
115	0xbe4f372c	-0.2023589
116	0x3e1fa03e	0.15588471
117	0xbe7cfca2	-0.24705747
118	0xbe4be9fa	-0.19913474
119	0xbe776c1c	-0.24162334
120	0x3e59ac46	0.21257123
121	0x3e411ab8	0.18857849
122	0x3ca590d0	0.020210654
123	0xbd65c738	-0.056098193
124	0xbe0c5bca	-0.1370689
125	0xbe7b52e2	-0.24543336
126	0xbe179ada	-0.14805165
127	0xbd5e8860	-0.054329276

action_layer.2.bias f4 [8]
0	0xbc8ac1f0	-0.01693818
1	0x3e046d68	0.1293236
2	0x3e2ca614	0.16860229
3	0xbd909430	-0.070595145
4	0x3c2c5080	0.01051724
5	0xbded9dac	-0.11602339
6	0x3e251bd8	0.16123903
7	0x3e376528	0.17909682
