RL_HW1/code/models/1_model.pth (torch, 806599 bytes, 10 tensors)

cnn.0.weight f4 [16, 3, 8, 8]
0	0xbeb08568	-0.3447678
1	0xbebf345a	-0.3734463
2	0xbe9e5cc6	-0.30930156
3	0xbeb7fc19	-0.35934523
4	0xbec396f4	-0.38201106
5	0xbe9994ad	-0.29996243
6	0x3e60fdc1	0.219718
7	0xbece06c8	-0.4023955
8	0xbe8fcc63	-0.28085622
9	0xbeb86cb2	-0.36020428
10	0xbe9e6b8c	-0.30941427
11	0xbe75df80	-0.2401104
12	0xbeab7ed5	-0.33495203
13	0xbe9ee6a2	-0.31035334
14	0xbeaa19fa	-0.33222944
15	0xbe8d0370	-0.27541685
16	0xbeb173ee	-0.3465876
17	0xbe9c7e2e	-0.30565017
18	0xbea2781f	-0.3173227
19	0xbe8c164a	-0.27360755
20	0x3e62b786	0.22140321
21	0x3e3e0bff	0.18559264
22	0x3e5ba12a	0.21448198
23	0x3e441c20	0.19151354
24	0xbea89b65	-0.32931057
25	0xbeb37137	-0.35047314
26	0x3eb08f06	0.34484118
27	0x3ed75d9f	0.42063615
28	0xbea3fce2	-0.32028872
29	0xbe99bfd4	-0.30029166
30	0xbec2c75e	-0.3804273
31	0xbe9c284f	-0.30499503
32	0xbe82ef6f	-0.25573298
33	0xbeb19bd3	-0.34689197
34	0xbe868626	-0.26274222
35	0xbd840017	-0.0644533
36	0xbe8ad14d	-0.2711281
37	0xbed1eef5	-0.41002622
38	0xbc2b0e8a	-0.010440478
39	0xbe86a295	-0.26295915
40	0xbea61e54	-0.32445014
41	0xbebb5305	-0.36586776
42	0xbe8cb188	-0.27479196
43	0x3dc4e960	0.09614825
44	0x3d3c4d8f	0.045972403
45	0x3c8be9be	0.01707923
46	0xbc8101b7	-0.015747888
47	0xbed957ed	-0.42449895
48	0xbe890c6d	-0.26767293
49	0xbebaaa7c	-0.36458194
50	0xbd829bb6	-0.06377356
51	0xbe758985	-0.23978241
52	0xbe12533c	-0.14289564
53	0x3e3e7803	0.18600468
54	0x3dbc24a6	0.09186678
55	0xbf043894	-0.5164883
56	0xbe9e07f2	-0.30865437
57	0xbe97cf1d	-0.29650202
58	0xbe889cc6	-0.2668211
59	0xbe8b725e	-0.27235693
60	0xbeca3a8b	-0.3949779
61	0xbe8fe319	-0.2810295
62	0xbe7e1fbc	-0.24816793
63	0xbe448dff	-0.19194792
64	0xbeab1af6	-0.33419007
65	0xbe99092e	-0.29889816
66	0xbe9fe41a	-0.31228715
67	0xbe9ddf7d	-0.3083457
68	0xbeab0301	-0.3340073
69	0xbe9cb4e8	-0.3060677
70	0x3e4db219	0.2008747
71	0xbec146fd	-0.37749472
72	0xbe91b0fd	-0.28455344
73	0xbe4aaacd	-0.19791718
74	0xbe876aae	-0.26448578
75	0xbe563242	-0.2091761
76	0xbe992bff	-0.2991638
77	0xbe8dd1e6	-0.27699202
78	0xbe8bcfa2	-0.2730685
79	0xbe7c8ac1	-0.24662305
80	0xbe9613b6	-0.29311913
81	0xbe886aa0	-0.26643848
82	0xbead0a2d	-0.33796826
83	0xbeaaa0f9	-0.33325937
84	0x3e3f5760	0.18685675
85	0x3e29669b	0.16543047
86	0x3e8792ce	0.2647919
87	0x3e7fa867	0.24966584
88	0xbeb2c0b7	-0.34912655
89	0xbe84bcde	-0.25925344
90	0x3e74d33f	0.23908709
91	0x3ebd0fa6	0.36926
92	0xbe9f82d2	-0.31154495
93	0xbea84678	-0.32866263
94	0xbeed880d	-0.4639286
95	0xbeb18863	-0.34674367
96	0xbebc7345	-0.36806694
97	0xbeb7e90e	-0.35919994
98	0xbeb0e56d	-0.34550038
99	0xbe08aa02	-0.13346103
100	0xbeb1f49a	-0.3475693
101	0xbec6941e	-0.3878488
102	0xbe5909a3	-0.21195082
103	0xbec2e210	-0.38063097
104	0xbea0f2f5	-0.31435362
105	0xbe7e0b8b	-0.24809091
106	0xbe9efbea	-0.3105157
107	0xbd9b674c	-0.07588062
108	0xbd8fb553	-0.07017007
109	0x3dee312d	0.11630473
110	0xbe2b4c75	-0.16728385
111	0xbeca2a9f	-0.39485642
112	0xbe9a50cd	-0.3013977
113	0xbe7039f4	-0.23459607
114	0xbe18ca49	-0.14920916
115	0xbe871331	-0.2638183
116	0xbe314171	-0.1731012
117	0x3e16b9c0	0.14719296
118	0xbd9db82b	-0.07701143
119	0xbedb771b	-0.42864308
120	0xbe44b405	-0.19209297
121	0xbe2ab42e	-0.16670296
122	0xbe81d0cc	-0.25354612
123	0xbe83b6c5	-0.2572538
124	0xbec0b1d0	-0.3763566
125	0xbe9589a0	-0.29206562
126	0xbe93accf	-0.2884278
127	0xbe8660b7	-0.26245663
128	0xbecb9c06	-0.39767474
129	0xbe8cd658	-0.2750728
130	0xbea7ec3c	-0.3279742
131	0xbeca35fd	-0.39494315
132	0xbe85ec3c	-0.26156795
133	0xbe9f076f	-0.3106036
134	0x3ea98c0b	0.33114657
135	0xbe73cb80	-0.23808098
136	0xbe46a827	-0.19400083
137	0xbe9599a6	-0.29218787
138	0xbe688f41	-0.22710897
139	0xbe80a053	-0.25122318
140	0xbe9e110e	-0.30872387
141	0xbe8042e0	-0.25051022
142	0xbe9a7039	-0.30163744
143	0xbea90759	-0.33013418
144	0xbe818ae2	-0.25301272
145	0xbe82da80	-0.25557327
146	0xbebb0d2b	-0.36533484
147	0xbebdee7e	-0.37096018
148	0x3e53c2d1	0.20679785
149	0x3e8acea9	0.27110794
150	0x3e840153	0.2578226
151	0x3e934964	0.2876693
152	0xbe6b16db	-0.22957937
153	0xbebdce4c	-0.37071455
154	0x3e9e5818	0.30926585
155	0x3ecb7a1b	0.39741597
156	0xbeb2e668	-0.3494141
157	0xbe9dc627	-0.3081524
158	0xbf041718	-0.5159774
159	0xbe200947	-0.15628539
160	0xbe825b01	-0.25460055
161	0xbe8c686b	-0.27423415
162	0xbe8debc2	-0.2771893
163	0xbd81b256	-0.06332843
164	0xbecba976	-0.39777726
165	0xbedaf20a	-0.42762786
166	0xbeadd875	-0.33954206
167	0xbe669445	-0.22517498
168	0xbebd241c	-0.36941612
169	0xbe8466f7	-0.25859806
170	0xbe9680a7	-0.2939503
171	0x3c2e2d5a	0.01063093
172	0xbc7ceaba	-0.015436823
173	0xbd8717c2	-0.06596328
174	0xbef1ebad	-0.4725012
175	0xbedac925	-0.42731586
176	0xbeca7202	-0.39540106
177	0xbeb1dc3b	-0.34738335
178	0xbe3d4d4a	-0.18486515
179	0xbeb4842c	-0.3525709
180	0xbe20ad40	-0.1569109
181	0x3cf16138	0.029465303
182	0xbda865b1	-0.08222521
183	0xbf028aea	-0.50993216
184	0xbe9a3da8	-0.30125165
185	0xbe90d861	-0.28290084
186	0xbe740aad	-0.23832197
187	0xbe60e10a	-0.21960846
188	0xbebbaa47	-0.3665335
189	0xbe6fa696	-0.23403391
190	0xbe9bd358	-0.3043468
191	0xbe7adc24	-0.2449804
192	0xbeca03c0	-0.39455986
193	0x3e35e813	0.1776431
194	0x3e4923f0	0.19642615
195	0x3e456434	0.19276506
196	0xbee25e0e	-0.44212383
197	0xbebb1b2a	-0.36544162
198	0xbe95b5a5	-0.29240146
199	0xbe9e94d1	-0.30972913
200	0xbe993d4b	-0.29929575
201	0xbea33ed1	-0.31883863
202	0xbe7d8adf	-0.24760006
203	0xbeab5781	-0.33465198
204	0xbe78d2f9	-0.2429923
205	0xbe9244ee	-0.28568214
206	0xbec1fc88	-0.3788798
207	0xbe8dedc8	-0.27720475
208	0xbef905ea	-0.48637325
209	0xbed5a1b0	-0.4172492
210	0xbef6a91b	-0.48175892
211	0xbebdb86d	-0.37054768
212	0xbe74d4b6	-0.23909268
213	0xbe8cf0fd	-0.2752761
214	0xbe9d2b7c	-0.30697238
215	0xbe9b12b9	-0.30287722
216	0xbcce8449	-0.025209563
217	0x3ec0253e	0.37528414
218	0x3e171056	0.14752325
219	0xbebcc4d0	-0.36868906
220	0xbea990f1	-0.33118394
221	0xbeb55a3b	-0.35420403
222	0xbe8929b0	-0.26789618
223	0xbe9b0a7d	-0.3028144
224	0x3e598eb5	0.21245845
225	0x3e9c9d5b	0.30588803
226	0xbbd347da	-0.0064477744
227	0xbeaa5b5e	-0.33272833
228	0xbea82ebe	-0.3284816
229	0xbe7b70e2	-0.2455478
230	0xbe7a08a9	-0.24417366
231	0xbeb576e4	-0.3544227
232	0x3df2677f	0.118361466
233	0xbe988589	-0.2978938
234	0xbeb6971d	-0.35662165
235	0xbea79526	-0.3273098
236	0xbe7adca2	-0.24498227
237	0xbe86edeb	-0.26353392
238	0xbebe4c48	-0.37167573
239	0xbe8bb130	-0.2728362
240	0xbeafcce7	-0.34336016
241	0xbec1155e	-0.37711614
242	0xbe809447	-0.25113127
243	0xbe79f393	-0.24409322
244	0xbe89a6a9	-0.26884964
245	0xbebcc493	-0.36868724
246	0xbe8ab919	-0.27094343
247	0xbeb86e81	-0.36021808
248	0xbe6cb6f3	-0.23116665
249	0xbe95cc65	-0.29257503
250	0xbe910fb4	-0.28332293
251	0xbe97dcff	-0.29660794
252	0xbeba951c	-0.36441886
253	0xbe807a9f	-0.25093552
254	0xbea8a0aa	-0.32935077
255	0xbe876b82	-0.2644921

cnn.0.bias f4 [16]
0	0xbebc5d2b	-0.36789832
1	0xbe34dd6c	-0.1766259
2	0xbe027f9c	-0.12743992
3	0xbe269928	-0.16269362
4	0x3edeb8a9	0.4350026
5	0xbeefad1d	-0.46811762
6	0xbec94e82	-0.3931771
7	0xbe1a1b72	-0.15049532
8	0xbea40698	-0.3203628
9	0xbe98a2d0	-0.29811716
10	0xbe2e00b1	-0.16992451
11	0xbebcf044	-0.36902058
12	0x3e9094b9	0.28238466
13	0xbe05014f	-0.1298878
14	0xbeb32286	-0.34987277
15	0x3ed9c6d5	0.4253451

cnn.2.weight f4 [32, 16, 4, 4]
0	0xbe930f73	-0.28722724
1	0xbe42680c	-0.18985003
2	0xbe92aef5	-0.28649107
3	0xbe83edf7	-0.2576749
4	0xbe50f7ae	-0.20406982
5	0xbea295e8	-0.31754994
6	0xbe90babd	-0.2826747
7	0xbe5eaf9f	-0.21746682
8	0xbe474b5d	-0.19462343
9	0xbeb5d625	-0.35514942
10	0xbe8f7865	-0.2802154
11	0xbe3c42ef	-0.18384908
12	0xbe81c362	-0.25344378
13	0xbea5242f	-0.32254168
14	0xbe5bf4d7	-0.21480118
15	0xbe4a6f3f	-0.19769
16	0xbe94933b	-0.29018578
17	0xbea11a0f	-0.31465194
18	0xbec4b60d	-0.38420144
19	0xbe6a2016	-0.22863802
20	0xbeb33006	-0.34997576
21	0xbe5c4f8d	-0.21514721
22	0xbe6a1c04	-0.2286225
23	0xbe2a7f4d	-0.16650124
24	0xbec7bd93	-0.3901182
25	0xbeb944d9	-0.3618534
26	0xbe515980	-0.20444298
27	0xbe3ffa35	-0.1874779
28	0xbe89083d	-0.26764098
29	0xbe87fdc6	-0.265608
30	0xbe482dcf	-0.19548725
31	0xbea3effe	-0.32019037
32	0xbe830755	-0.2559153
33	0xbe936f4b	-0.28795847
34	0xbe7cff52	-0.24706772
35	0xbeabb970	-0.33539915
36	0xbe8d8837	-0.27642986
37	0xbe9b71a3	-0.30360135
38	0xbe8096a6	-0.25114936
39	0xbeacafe8	-0.33727956
40	0xbe723aaa	-0.23655191
41	0xbe968a0b	-0.29402193
42	0xbe5e22e6	-0.21693
43	0xbe6e11d7	-0.23248993
44	0xbe948aa6	-0.2901203
45	0xbe48c9e0	-0.19608259
46	0xbe898e83	-0.2686654
47	0xbe5ef6f9	-0.217739
48	0xbe892c1c	-0.26791465
49	0xbe941894	-0.28925002
50	0xbe882bfa	-0.2659605
51	0xbe8a6808	-0.27032495
52	0xbeab1a18	-0.33418345
53	0xbe2aeee3	-0.1669269
54	0xbe4586e9	-0.19289745
55	0xbec458b1	-0.38348916
56	0xbe90fb64	-0.28316796
57	0xbe82acc4	-0.25522435
58	0xbe541bf6	-0.20713791
59	0xbe5b0f97	-0.21392666
60	0xbea5fe3d	-0.3242053
61	0xbec02cff	-0.3753433
62	0xbe91b4aa	-0.28458148
63	0xbe831faa	-0.25610095
64	0xbebf21de	-0.37330526
65	0xbebbc278	-0.36671805
66	0xbe8d13c7	-0.2755415
67	0xbe851faf	-0.26000735
68	0xbead3292	-0.33827645
69	0xbe9bfccb	-0.30466303
70	0xbec07dd6	-0.37596005
71	0xbe611165	-0.21979292
72	0xbe9bebff	-0.30453488
73	0xbea75229	-0.3267987
74	0xbe8a416c	-0.27003038
75	0xbe7b4291	-0.24537112
76	0xbe9502b9	-0.2910364
77	0xbea9b46c	-0.33145463
78	0xbeb82384	-0.35964596
79	0xbeaaf5ae	-0.33390564
80	0xbec2f04b	-0.38073954
81	0xbeadabe5	-0.33920208
82	0xbec0f2d3	-0.3768526
83	0xbea2dc06	-0.3180849
84	0xbeb0f447	-0.3456137
85	0xbebecce4	-0.37265694
86	0xbe9711db	-0.2950581
87	0xbedcf6e9	-0.43157127
88	0xbe984eb2	-0.2974754
89	0xbe07ce03	-0.13262181
90	0xbeb1fe7d	-0.34764472
91	0xbebff11f	-0.37488648
92	0xbe50f7b9	-0.20406999
93	0x3e848875	0.25885358
94	0xbe1f0644	-0.15529734
95	0x3dab2c8a	0.083581045
96	0xbeb671f5	-0.35633817
97	0xbe972945	-0.29523674
98	0xbe59bc99	-0.2126335
99	0xbe93f94d	-0.2890114
100	0xbe85cdd9	-0.26133612
101	0xbe3bcd08	-0.18339932
102	0xbe4fb356	-0.20283255
103	0xbe979113	-0.2960287
104	0xbe30fbad	-0.17283507
105	0xbe935ad3	-0.2878023
106	0xbe487303	-0.19575123
107	0xbe434045	-0.19067486
108	0xbebc4f76	-0.36779374
109	0xbe564b13	-0.20927076
110	0xbec6e9ce	-0.38850254
111	0xbeaabd6b	-0.3334764
112	0xbebc4b10	-0.36776018
113	0xbe84f7f9	-0.25970438
114	0xbe7c8d0c	-0.2466318
115	0xbe593b05	-0.2121392
116	0xbec179a7	-0.37788126
117	0xbec509d4	-0.3848406
118	0xbe5b4bfa	-0.21415702
119	0xbe819594	-0.25309432
120	0xbe4543d3	-0.19264154
121	0xbe40d386	-0.1883069
122	0xbe698667	-0.22805177
123	0xbe77e161	-0.24207069
124	0xbe6f9803	-0.23397832
125	0xbe34841f	-0.17628525
126	0xbe72041e	-0.23634383
127	0xbe2b639f	-0.16737221
128	0xbeaf3403	-0.3421937
129	0xbec2e859	-0.38067892
130	0xbeaec51f	-0.34134766
131	0xbe941177	-0.28919575
132	0xbe999c96	-0.30002278
133	0xbe2975c0	-0.16548824
134	0xbe8dff90	-0.2773404
135	0xbe504c2d	-0.20341559
136	0xbe6c8b58	-0.2310003
137	0xbe50a9ae	-0.20377228
138	0xbe781ca4	-0.24229676
139	0xbe3542ab	-0.17701213
140	0xbe37d0ad	-0.17950697
141	0xbe5a560b	-0.21321885
142	0xbe8c5d12	-0.27414757
143	0xbe6f60da	-0.2337679
144	0xbeb32864	-0.34991753
145	0xbe8f02cb	-0.27931818
146	0xbea2398e	-0.31684536
147	0xbeab2cfb	-0.33432755
148	0xbea39b6c	-0.31954515
149	0xbe6b3fd6	-0.2297357
150	0xbe6787a1	-0.22610332
151	0xbe8e626a	-0.2780946
152	0xbe6b95b7	-0.2300633
153	0xbe457de6	-0.19286308
154	0xbe579d9d	-0.21056218
155	0xbe92ca2d	-0.28669873
156	0xbea6dd1f	-0.32590577
157	0xbe91bf7c	-0.28466403
158	0xbe7dee11	-0.24797846
159	0xbe2b2aa5	-0.16715486
160	0xbeb1f40f	-0.34756514
161	0xbe964f99	-0.29357603
162	0xbe517ef6	-0.20458588
163	0xbe723983	-0.23654751
164	0xbe80bde1	-0.25144866
165	0xbe3e344e	-0.1857464
166	0xbe906087	-0.28198645
167	0xbe820eb1	-0.25401834
168	0xbe6637c4	-0.2248221
169	0xbe6cb1d7	-0.23114716
170	0xbe5416eb	-0.20711868
171	0xbe61621d	-0.22010083
172	0xbe760d23	-0.24028449
173	0xbe832579	-0.25614527
174	0xbe376db0	-0.17912936
175	0xbea9e4f4	-0.3318249
176	0xbec0aa5e	-0.3762998
177	0xbe3b859a	-0.18312684
178	0xbe580cfd	-0.21098705
179	0xbe8b0b54	-0.2715708
180	0xbea8e8ba	-0.32990056
181	0xbec4a3f6	-0.38406342
182	0xbec7e469	-0.3904145
183	0xbeb93a94	-0.36177504
184	0xbe8feccf	-0.28110358
185	0xbe678ec7	-0.22613059
186	0xbe2cbd88	-0.16869175
187	0xbe389e45	-0.18029125
188	0xbe7cc605	-0.24684913
189	0xbe81a9e1	-0.2532492
190	0xbe7137e7	-0.23556481
191	0xbe55920e	-0.20856497
192	0xbe92dafb	-0.28682694
193	0xbea26cf8	-0.31723762
194	0xbe9c8146	-0.30567378
195	0xbeaa79ec	-0.33296144
196	0xbea21714	-0.31658232
197	0xbe8fe9d8	-0.28108096
198	0xbe50fdfd	-0.20409389
199	0xbeaa64b9	-0.3327997
200	0xbe902cad	-0.28159085
201	0xbe5f39c2	-0.21799377
202	0xbe69437d	-0.22779651
203	0xbeb2d7e2	-0.3493033
204	0xbe7ade70	-0.24498916
205	0xbe62b1a4	-0.22138077
206	0xbec56072	-0.38550144
207	0xbe6945a6	-0.22780475
208	0xbe78ece6	-0.2430912
209	0xbe6b3320	-0.22968721
210	0xbe8763fb	-0.26443467
211	0xbe888193	-0.26661357
212	0xbe8bee08	-0.2733004
213	0xbe6dbbac	-0.23216122
214	0xbe542fa6	-0.20721301
215	0xbe6889bc	-0.22708791
216	0xbe7c6596	-0.24648127
217	0xbeaaf46f	-0.33389613
218	0xbe405a76	-0.18784508
219	0xbe6f8ad5	-0.23392804
220	0xbe4cbf95	-0.19994958
221	0xbec5f9d4	-0.38667166
222	0xbeb4aa71	-0.35286286
223	0xbe8da324	-0.2766353
224	0xbe9e3824	-0.30902207
225	0xbe830c96	-0.2559554
226	0xbe868842	-0.2627583
227	0x3e7a9b2e	0.24473259
228	0xbe85aa51	-0.26106504
229	0xbe8f9a2a	-0.28047305
230	0x3eaa8840	0.33307076
231	0x3e8c4768	0.2739823
232	0x3e7db69f	0.24776696
233	0x3ea369de	0.31916708
234	0x3e88ccb0	0.26718664
235	0x3eb953bc	0.36196697
236	0x3e9f4739	0.31109026
237	0x3eadfa6b	0.33980116
238	0x3e739ada	0.2378954
239	0x3e809c81	0.25119403
240	0xbe92de9c	-0.28685462
241	0xbea375d1	-0.31925824
242	0xbeb6abbe	-0.35677904
243	0xbe8d82ff	-0.27639005
244	0xbe3bbdb4	-0.18334085
245	0xbe7c4e8e	-0.24639341
246	0xbe4d32a2	-0.20038846
247	0xbe4761c6	-0.19470891
248	0xbe6eb254	-0.23310214
249	0xbe7d18b1	-0.2471645
250	0xbe79c500	-0.24391556
251	0xbe3dba5c	-0.18528122
252	0xbeab652c	-0.33475626
253	0xbec58be4	-0.3858329
254	0xbea87506	-0.32901782
255	0xbe8bfb02	-0.2733994

cnn.2.bias f4 [32]
0	0xbe4aa2c2	-0.1978865
1	0xbe8b9b0b	-0.27266726
2	0xbee48a39	-0.44636706
3	0xbebf96ed	-0.37419835
4	0xbdada215	-0.0847818
5	0xbeb7f6fb	-0.3593062
6	0xbe5a4bfe	-0.21318051
7	0xbe989ebc	-0.29808605
8	0xbec08744	-0.376032
9	0xbe8f6c5d	-0.28012362
10	0xbec502f2	-0.3847881
11	0x3e95c7b5	0.29253927
12	0xbe975057	-0.29553482
13	0xbe32cc53	-0.17460756
14	0xbe2d00f7	-0.168949
15	0xbea75ea9	-0.32689407
16	0xbddad334	-0.10684815
17	0xbe80e26f	-0.25172755
18	0xbeb93630	-0.36174154
19	0xbe83d414	-0.2574774
20	0xbeef2515	-0.4670798
21	0xbe80c6ea	-0.2515176
22	0xbe38db96	-0.18052515
23	0xbe669e1f	-0.22521256
24	0xbea94306	-0.33058947
25	0xbe4352dd	-0.19074579
26	0xbeec3d0c	-0.46140325
27	0xbeb50116	-0.3535239
28	0xbe97d4c6	-0.2965452
29	0xbeaaa86d	-0.33331624
30	0xbe7208db	-0.2363619
31	0xbe4bd7aa	-0.19906488

cnn.4.weight f4 [32, 32, 3, 3]
0	0xbe786926	-0.24258861
1	0xbe688dff	-0.22710417
2	0xbeabf8d2	-0.33588272
3	0xbeb455e5	-0.35221782
4	0xbe2e59f8	-0.17026508
5	0xbea4a864	-0.32159722
6	0x3e83aeaa	0.25719196
7	0xbead9d69	-0.33909157
8	0x3ea72383	0.3264428
9	0xbe8b3df1	-0.27195695
10	0xbeb414f1	-0.35172227
11	0xbe9dbde6	-0.30808944
12	0xbe85e22d	-0.2614912
13	0xbe92ae36	-0.28648537
14	0xbeb4c76b	-0.35308394
15	0xbea2d909	-0.3180621
16	0xbeaa1f38	-0.33226943
17	0xbe9a7a3d	-0.30171385
18	0xbec2be6f	-0.38035914
19	0xbe83b9af	-0.25727603
20	0xbe8a0667	-0.2695801
21	0xbec91466	-0.39273375
22	0xbe9210fb	-0.2852858
23	0xbe8999ae	-0.2687506
24	0xbed194af	-0.4093375
25	0xbe87fee3	-0.2656165
26	0xbe959f87	-0.29223272
27	0xbe78d57a	-0.24300185
28	0xbe9e622f	-0.30934283
29	0xbecde26f	-0.40211818
30	0xbec37854	-0.3817774
31	0xbea8a845	-0.3294088
32	0xbecbccdc	-0.39804733
33	0xbea72431	-0.326448
34	0xbeadef38	-0.33971572
35	0xbedce9ff	-0.43147275
36	0xbb24918b	-0.0025111164
37	0xbeb1eb29	-0.34749725
38	0x3e9024c5	0.28153053
39	0xbee298e1	-0.44257262
40	0xbed3bd52	-0.41355377
41	0xbef1c6b8	-0.47221923
42	0xbec82626	-0.39091605
43	0xbe80f0b1	-0.25183633
44	0xbed8d26e	-0.42348045
45	0xbecded8c	-0.40220296
46	0xbea4854b	-0.32132944
47	0xbe44ab19	-0.19205894
48	0xbebdff50	-0.3710885
49	0xbecba083	-0.39770898
50	0xbe0b137f	-0.13581656
51	0xbecb7c9f	-0.39743516
52	0xbeab2927	-0.33429834
53	0xbe16db3c	-0.14732069
54	0xbeb508fb	-0.35358414
55	0xbecde08f	-0.40210387
56	0x3e683694	0.2267707
57	0xbe819211	-0.25306752
58	0xbedd63f2	-0.43240315
59	0xbeefcce0	-0.46835995
60	0xbec032e9	-0.3753884
61	0xbeae7c4f	-0.34079215
62	0xbe8a273e	-0.26983064
63	0xbe87f708	-0.26555657
64	0xbe8cb7e9	-0.27484062
65	0x3e80e206	0.25172442
66	0xbecd2906	-0.4007036
67	0xbeb3306b	-0.34997877
68	0xbe9c19dc	-0.3048848
69	0xbeacd4ba	-0.33756047
70	0xbe90528d	-0.2818798
71	0xbe996d6a	-0.2996629
72	0xbe997ce4	-0.29978096
73	0xbeec10f3	-0.4610668
74	0xbea50bb2	-0.32235485
75	0xbe531500	-0.2061348
76	0xbe5cfd18	-0.21580923
77	0xbeaec782	-0.34136587
78	0xbe3ce44b	-0.18446462
79	0xbddbe530	-0.107370734
80	0xbe70bc12	-0.23509243
81	0xbe95c0f9	-0.2924879
82	0xbd8109e5	-0.06300715
83	0xbe885440	-0.26626778
84	0xbe8774c4	-0.26456273
85	0xbee1addb	-0.44077954
86	0xbe9f962e	-0.31169266
87	0x3e80cec1	0.2515774
88	0xbeb84f1c	-0.35997856
89	0x3eb5cb4b	0.35506663
90	0xbeb5702b	-0.3543714
91	0x3eb104ca	0.34573966
92	0xbe993cb1	-0.29929116
93	0xbe8b3a66	-0.27192992
94	0xbe9034d7	-0.28165314
95	0xbea083c1	-0.3135052
96	0xbea3e784	-0.3201257
97	0xbea2189e	-0.31659406
98	0xbe98cffa	-0.29846174
99	0xbec93ceb	-0.3930429
100	0xbe9a05ce	-0.30082554
101	0xbea1a3fb	-0.3157042
102	0xbe6f93fe	-0.23396298
103	0xbeccc569	-0.39994362
104	0xbe15c234	-0.14624864
105	0xbece759c	-0.40324104
106	0xbe9f8e34	-0.3116318
107	0xbe5b0dc5	-0.21391971
108	0xbec08ee9	-0.37609032
109	0xbe5a1ad6	-0.212993
110	0xbe605c1c	-0.21910137
111	0xbed419d3	-0.41425952
112	0xbeb76f69	-0.35827187
113	0xbe9ef5e0	-0.31046963
114	0xbea9d2f5	-0.3316876
115	0xbe974d65	-0.29551235
116	0xbebf768d	-0.37395135
117	0x3e84cc9d	0.25937358
118	0x3e1dc951	0.15408827
119	0xbed85501	-0.42252353
120	0xbebcb1a7	-0.36854288
121	0xbe849a97	-0.25899193
122	0xbeac7103	-0.3367997
123	0x3e2921de	0.16516826
124	0xbe1db874	-0.15402395
125	0xbe38291d	-0.17984433
126	0xbeb1ceee	-0.34728187
127	0xbe91999c	-0.28437507
128	0xbea44fab	-0.32092032
129	0xbe95b1c4	-0.29237187
130	0xbeaa8b5e	-0.33309454
131	0xbeabe369	-0.33571938
132	0x3e003cee	0.12523243
133	0xbeb19211	-0.34681752
134	0x3ea4706e	0.32117027
135	0xbe8cfd2e	-0.2753691
136	0xbe8f78cd	-0.2802185
137	0xbe870463	-0.26370534
138	0xbea8e6d6	-0.32988614
139	0xbea23f27	-0.31688806
140	0xbea26019	-0.31713942
141	0xbe77435e	-0.24146792
142	0xbe953bd3	-0.29147205
143	0xbe885698	-0.26628566
144	0xbeabadf4	-0.33531153
145	0xbee53791	-0.44768956
146	0xbeacd8fa	-0.3375929
147	0xbec27d11	-0.37986043
148	0xbebf1f73	-0.3732868
149	0xbecf52cd	-0.4049286
150	0xbc90a514	-0.01765684
151	0xbecea358	-0.40358996
152	0xbe3d2b63	-0.18473582
153	0xbe8e4e35	-0.27794042
154	0xbe7dae06	-0.24773416
155	0xbeb0f3dd	-0.34561053
156	0xbea710c2	-0.32629973
157	0xbe8f95c8	-0.28043962
158	0xbe7b1010	-0.24517846
159	0xbe7e9691	-0.24862124
160	0xbea38cf2	-0.3194347
161	0xbe967749	-0.29387882
162	0xbe903de7	-0.28172228
163	0x3d839fcc	0.06426963
164	0xbedb28b4	-0.42804492
165	0xbe99b135	-0.3001801
166	0xbef947d0	-0.486876
167	0xbedb9049	-0.42883518
168	0xbd99291d	-0.07478545
169	0xbec11ee0	-0.37718868
170	0xbebd96a6	-0.37028998
171	0xbe91e9ef	-0.2849879
172	0xbe8e676b	-0.27813277
173	0xbe8f3f86	-0.27978152
174	0xbed83b19	-0.42232588
175	0xbe8e28db	-0.27765545
176	0xbea728d9	-0.32648352
177	0xbe79cac0	-0.24393749
178	0xbe9ddfcb	-0.30834803
179	0xbea8238f	-0.3283963
180	0xbe788f41	-0.24273397
181	0xbe8a7626	-0.27043265
182	0xbea22bce	-0.31674045
183	0xbeca20b4	-0.39478076
184	0xbec3a030	-0.3820815
185	0x3ec12468	0.37723088
186	0xbea1583b	-0.31512627
187	0xbf05d6b1	-0.5228072
188	0xbe37a01b	-0.17932169
189	0x3e94c1d3	0.29054126
190	0xbece3597	-0.4027526
191	0xbec7f16e	-0.39051384
192	0xbed048a1	-0.4068041
193	0xbea92e5e	-0.33043188
194	0xbf0cbdf9	-0.54977375
195	0xbec27a0d	-0.37983742
196	0xbea69e06	-0.32542437
197	0xbeeadb5d	-0.45870486
198	0xbe199e2a	-0.15001741
199	0xbea11194	-0.31458724
200	0xbdd7d6cf	-0.10539018
201	0xbec6ad13	-0.3880392
202	0xbea3de57	-0.3200557
203	0xbe769053	-0.24078493
204	0xbe8f1613	-0.2794653
205	0xbead7ead	-0.33885708
206	0xbe81b2b1	-0.25331643
207	0xbea38df1	-0.3194423
208	0xbea855da	-0.32878
209	0xbeb0d95b	-0.3454083
210	0xbe9c49c3	-0.30525026
211	0xbe8953b6	-0.2682168
212	0xbeacdcfc	-0.33762348
213	0xbe9a5709	-0.30144528
214	0xbe9bd7df	-0.30438134
215	0xbeb7db21	-0.3590937
216	0xbe8163a0	-0.2527132
217	0xbea78686	-0.3271982
218	0xbe9bbcc0	-0.30417442
219	0xbea6acd6	-0.32553738
220	0xbe7d7f57	-0.24755608
221	0xbe881f77	-0.26586506
222	0xbe86361f	-0.26213166
223	0xbeb48f07	-0.3526537
224	0xbe8716e4	-0.26384652
225	0xbeacef3e	-0.33776277
226	0xbebd1c2b	-0.36935553
227	0xbe9067f4	-0.2820431
228	0xbed56fbe	-0.41686815
229	0xbeb06652	-0.34453064
230	0xbeafeea8	-0.34361768
231	0xbe96e10f	-0.2946858
232	0xbeab299a	-0.33430177
233	0xbe8f8306	-0.2802965
234	0xbe209faa	-0.15685907
235	0xbee8284f	-0.45343253
236	0x3e888976	0.26667374
237	0xbe1ef8d6	-0.15524611
238	0xbd9af07f	-0.07565402
239	0x3e9e7e9e	0.30955976
240	0xbe65ffdc	-0.22460884
241	0xbe988459	-0.29788473
242	0x3e83e83b	0.25763115
243	0xbe7f9f6b	-0.24963157
244	0xbe9d7495	-0.30753008
245	0xbeb30b4c	-0.34969556
246	0xbeb78146	-0.35840815
247	0xbea79cbf	-0.32736775
248	0xbe9cf730	-0.3065734
249	0xbe97dc65	-0.29660335
250	0xbeb70928	-0.35749173
251	0xbe9b028f	-0.3027539
252	0xbeaf6bfb	-0.3426207
253	0xbeab1983	-0.334179
254	0xbeb63ed7	-0.35594818
255	0xbe883d0e	-0.2660908

cnn.4.bias f4 [32]
0	0xbec7af4d	-0.3900093
1	0xbe9117ae	-0.2833838
2	0xbee6976b	-0.45037398
3	0xbea67e7f	-0.32518384
4	0xbe8c289b	-0.2737473
5	0xbe9e4e80	-0.30919266
6	0xbe82b737	-0.25530407
7	0xbea1f337	-0.3163087
8	0xbe91bdf5	-0.28465238
9	0xbeab9468	-0.33511662
10	0xbed0a54a	-0.40751106
11	0xbebd3e85	-0.3696176
12	0xbeffa974	-0.4993397
13	0xbedd2fed	-0.43200627
14	0xbe9cd489	-0.306309
15	0xbe9df02e	-0.30847305
16	0xbe9b3d5d	-0.30320254
17	0xbe9416fb	-0.28923783
18	0xbe70e8a1	-0.23526241
19	0xbf0452f8	-0.516891
20	0xbe73b85a	-0.23800793
21	0xbee92619	-0.4553688
22	0xbea2ee5c	-0.3182248
23	0xbea6f14c	-0.3260597
24	0xbeaaa366	-0.33327788
25	0xbe9d69b1	-0.307447
26	0xbee09c46	-0.43869227
27	0xbe9e3f1c	-0.30907524
28	0xbeb25c0a	-0.34835845
29	0xbf0e2587	-0.5552601
30	0xbef966fd	-0.48711386
31	0xbe9fe0f8	-0.31226325

action_layer.0.weight f4 [16, 11264]
0	0xbadc6c88	-0.0016817013
1	0xbb4419c6	-0.0029922589
2	0x3b929f1a	0.004474533
3	0x3b861416	0.00409175
4	0xbe871ae5	-0.26387706
5	0x3e9b8f16	0.30382603
6	0x3a96b490	0.0011497904
7	0x3be79f6c	0.007068565
8	0xbb704f90	-0.0036668517
9	0xbb4ca85e	-0.0031228284
10	0xbbb8fca2	-0.0056453506
11	0x3e96b321	0.2943354
12	0x3e9996f4	0.2999798
13	0xbbca74ae	-0.00617846
14	0x3c1804f4	0.009278525
15	0x3baf4908	0.005349282
16	0x3c0ff1b2	0.008785652
17	0xbc0f8de9	-0.008761861
18	0xbb911e0d	-0.004428631
19	0xbb46d71c	-0.0030340618
20	0xbe372240	-0.17884159
21	0x3e96f8e6	0.2948677
22	0x3e9dcf5f	0.30822274
23	0x3e9bca1c	0.30427635
24	0x3e992f50	0.2991891
25	0x3e97c1d7	0.29640076
26	0x3e9596c3	0.29216585
27	0x3e9c70cf	0.30554816
28	0x3e963484	0.2933694
29	0xbc137ec8	-0.009002395
30	0xba8ebc60	-0.001088988
31	0xbbbe6578	-0.005810436
32	0x3e97c46e	0.2964205
33	0x3e9ad42d	0.30240002
34	0x3e9e0331	0.3086181
35	0x3e997138	0.29969192
36	0x3e957d24	0.29197037
37	0x3e990366	0.29885405
38	0x3e9d45d9	0.30717352
39	0x3e98e713	0.29863796
40	0x3e9e2089	0.30884197
41	0x3e9cd7ed	0.30633488
42	0x3e9e5c91	0.30929998
43	0x3e9c2a1b	0.30500874
44	0x3e951b1e	0.2912225
45	0x3e968e28	0.29405332
46	0x3e99e241	0.3005543
47	0x3e9c0b29	0.30477265
48	0x3e9e490e	0.3091511
49	0x3e94ed4f	0.29087302
50	0x3e9dce10	0.30821276
51	0x3e9ab1b9	0.30213717
52	0x3e97b4d0	0.29630136
53	0x3e9bfd53	0.3046671
54	0x3e998029	0.2998059
55	0x3e96b44e	0.29434437
56	0x3e99d4a4	0.30045044
57	0x3e9625c7	0.29325697
58	0x3e9a31b2	0.3011604
59	0x3e9c9856	0.30584973
60	0x3e9a6a25	0.30159107
61	0x3e9cf2f0	0.30654097
62	0x3e970052	0.29492432
63	0x3e9b2f82	0.30309683
64	0x3e954704	0.29155743
65	0x3e9de97b	0.30842194
66	0x3e9e143f	0.30874822
67	0x3e9afd93	0.30271587
68	0x3e985b23	0.29757032
69	0x3e9990be	0.29993242
70	0x3e9d8a86	0.30769747
71	0x3e98c95a	0.2984112
72	0x3e963a90	0.29341555
73	0x3e975f75	0.29565015
74	0x3e9ad332	0.30239254
75	0x3e975fde	0.29565328
76	0x3e9505af	0.291059
77	0x3e979985	0.29609314
78	0x3e9d563c	0.30729854
79	0x3e955e57	0.29173538
80	0x3e9db8e8	0.30805135
81	0x3e96e999	0.29475096
82	0x3e98e5df	0.29862878
83	0x3e9a2cb9	0.30112246
84	0x3e98c0df	0.2983465
85	0x3e9e55a7	0.30924723
86	0x3e96a8db	0.29425701
87	0x3e9dbb99	0.30807188
88	0x3e984815	0.29742494
89	0x3e9a1227	0.30091974
90	0x3e988fd5	0.29797235
91	0x3e95527e	0.291645
92	0x3e9600f1	0.29297593
93	0x3e9775b3	0.29581985
94	0xbd70bc6f	-0.058773454
95	0x3e970f92	0.29504067
96	0xbe8a8234	-0.27052462
97	0xbb5c542a	-0.0033619502
98	0x3bc8b8e6	0.0061255572
99	0x3ba4f584	0.0050341506
100	0x39a5f8a0	0.00031656493
101	0xb787e000	-1.6197562e-05
102	0xbc017add	-0.007902828
103	0xbc13c76e	-0.009019716
104	0x3a223420	0.0006187577
105	0x3a5464b0	0.0008102162
106	0xbbfd6149	-0.0077325446
107	0xbbe288a3	-0.006913261
108	0xbb5b5ea2	-0.0033473154
109	0xbbbc32cf	-0.0057433615
110	0xbe843dd3	-0.25828418
111	0x3e992fec	0.29919374
112	0xbe345826	-0.17611751
113	0x3e9549e6	0.29157943
114	0x3e9ab342	0.30214888
115	0x3c0fe6dc	0.0087830685
116	0x39687980	0.00022170506
117	0xbbce9c34	-0.006305242
118	0x3b1c2d00	0.0023830533
119	0x3c06f3bc	0.008236822
120	0xbc199850	-0.009374693
121	0x3be6eb98	0.007047128
122	0xbb3b4f46	-0.0028581186
123	0x3a861398	0.0010229228
124	0xbbce5c85	-0.0062976503
125	0x3e995b46	0.2995245
126	0xbe335447	-0.17512618
127	0x3e951d9d	0.29124156
128	0x3e9d23fc	0.30691516
129	0x3e962a9b	0.2932938
130	0x3e9b86b3	0.30376205
131	0x3e9ca60a	0.30595428
132	0x3e9b7794	0.30364668
133	0x3e9cbf12	0.30614525
134	0x3e9c4540	0.30521584
135	0x3e962e0d	0.2933201
136	0x3e97939d	0.29604807
137	0x3e9b9ffd	0.303955
138	0x3e9cbdbc	0.30613506
139	0x3e9d5d67	0.30735323
140	0x3e96f603	0.29484567
141	0x3e9bc8f0	0.3042674
142	0x3e98f96a	0.29877788
143	0x3e981061	0.29699996
144	0x3e97e21c	0.29664695
145	0x3e9908e9	0.2988961
146	0x3e96d5b8	0.2945993
147	0x3a8c5c90	0.0010708738
148	0x3e9df859	0.30853537
149	0x3c0d55ee	0.008626444
150	0xbc9cd32a	-0.01914366
151	0x3e9582bd	0.29201308
152	0x3e9ccd70	0.30625486
153	0x3e98d8b4	0.2985283
154	0x3e9bb55a	0.30411798
155	0x3c1779bc	0.009245332
156	0x3bd30704	0.0064400453
157	0xbbffc1d2	-0.0078050876
158	0x3e989b70	0.2980609
159	0x3e9c74a5	0.30557743
160	0x3e9dbcb9	0.30808046
161	0x3e9d08a7	0.30670664
162	0x3e9c6d58	0.30552173
163	0x3e9c61d9	0.30543402
164	0x3e9aba15	0.30220094
165	0x3b51b8c4	0.0032000998
166	0xbe3bd610	-0.18343377
167	0x3e9b0e6a	0.30284435
168	0x3e9b2898	0.30304408
169	0x3e9c5a23	0.3053752
170	0x3bc5496e	0.0060207164
171	0xbe8527d9	-0.26006964
172	0x3e99ce7a	0.30040342
173	0x3e968ae1	0.2940283
174	0x3e9ab228	0.30214047
175	0x3e9cc45f	0.3061857
176	0x3e97b031	0.2962661
177	0x3e9e3ea0	0.30907154
178	0x3e9de919	0.30841902
179	0x3e9a65c3	0.30155763
180	0x3e9af5a9	0.3026555
181	0x3e96bf85	0.29442993
182	0xbe3a4f18	-0.18194234
183	0x3e99729f	0.2997026
184	0x3e97df7b	0.2966269
185	0x3e99740c	0.2997135
186	0x3e9e39ed	0.3090357
187	0xbe887fec	-0.26660097
188	0x3e98438e	0.2973904
189	0x3e9adf5b	0.30248532
190	0x3e956504	0.2917863
191	0x3e97d6b4	0.29655993
192	0x3e9a02e6	0.30080336
193	0x3e9be777	0.3045003
194	0x3e98be0f	0.29832503
195	0xbe23f6a8	-0.1601206
196	0x3b97d532	0.004633569
197	0xbb184570	-0.0023234747
198	0xbe84a305	-0.25905624
199	0x3e99f928	0.30072904
200	0x3e9a3eaf	0.3012595
201	0x3e9bd83c	0.3043841
202	0x3a4f60b0	0.0007910831
203	0xbe8c5075	-0.27405134
204	0x3e9c3522	0.30509287
205	0x3e992590	0.2991147
206	0x3e9c9477	0.3058202
207	0x3e9e3c48	0.30905366
208	0x3e9693d8	0.2940967
209	0x3e9c8992	0.30573708
210	0x3e9a63b5	0.30154195
211	0x3e970f71	0.29503968
212	0x3b7f9fe4	0.0039005214
213	0x3ad1fca8	0.0016020732
214	0xbe897b49	-0.26851872
215	0x3e9c7693	0.30559215
216	0x3e9769cf	0.29572913
217	0x3e98b5da	0.29826242
218	0x3e97cc63	0.29648122
219	0x3baa0e0e	0.0051896637
220	0x3e97ab1a	0.29622728
221	0x3e9555b8	0.2916696
222	0x3e9d537d	0.3072776
223	0x3e9d5648	0.3072989
224	0x3e9848b0	0.29742956
225	0x3e9c4a90	0.30525637
226	0x3e9865e7	0.29765245
227	0x3e95d9bb	0.29267678
228	0x3e878285	0.26466766
229	0x3e9c8e18	0.3057716
230	0x3e9d2d4d	0.30698624
231	0x3e9c2228	0.3049481
232	0x3e968986	0.29401797
233	0x3e97747a	0.29581052
234	0x3e982402	0.29714972
235	0x3e9a3ef7	0.30126163
236	0x3e9d28dd	0.3069524
237	0xbe2727a3	-0.16323714
238	0x3e9bac1e	0.30404752
239	0x3e9ab407	0.30215475
240	0x3e9962f6	0.29958314
241	0x3e99eb7b	0.3006247
242	0x3e96d1e7	0.29457018
243	0x3b14f410	0.002272848
244	0x3eba829d	0.36427775
245	0x3e4cf65c	0.20015854
246	0x3e9a514f	0.3014016
247	0x3e9e8cfb	0.30966935
248	0x3e97611c	0.29566276
249	0x3e951997	0.29121086
250	0x3e9e1a06	0.3087923
251	0xbba09e07	-0.004901651
252	0x3e956acc	0.29183042
253	0xbe38edcc	-0.18059462
254	0x3e994bbd	0.29940596
255	0x3e999c1d	0.30001917

action_layer.0.bias f4 [16]
0	0x3f1c3301	0.61015326
1	0x3ee136ba	0.43987066
2	0xbe9f2f0c	-0.3109058
3	0xbe75641e	-0.23963973
4	0xbe9b26cf	-0.30303046
5	0xbe217589	-0.15767492
6	0xbed36390	-0.41286898
7	0xbe90beea	-0.28270656
8	0xbe266512	-0.16249493
9	0xbe41b371	-0.18916108
10	0xbeb5f6f1	-0.35539964
11	0x3f3a0357	0.72661346
12	0xbe99451c	-0.2993554
13	0xbe434e40	-0.19072819
14	0xbd645700	-0.055747032
15	0xbea2e125	-0.31812397

action_layer.2.weight f4 [8, 16]
0	0xbffedb2a	-1.9910634
1	0xbfca11ab	-1.5786642
2	0xbe46c548	-0.19411194
3	0xbf055885	-0.52088195
4	0xbf082472	-0.5318061
5	0xbf43ce10	-0.764863
6	0xbea83102	-0.3284989
7	0xbe16b5af	-0.14717744
8	0xbf4ba9f0	-0.7955618
9	0xbeaef328	-0.34169888
10	0xbf0e10a9	-0.5549417
11	0xbfff5132	-1.9946654
12	0xbe7d7cf1	-0.24754693
13	0xbe9f9dd2	-0.31175095
14	0xbe93c520	-0.28861332
15	0xbee88742	-0.45415694
16	0x3d2b5e27	0.041837838
17	0xbe75ca69	-0.24002995
18	0x3e490198	0.19629514
19	0x3ee1e07c	0.4411658
20	0xbe8bba91	-0.27290776
21	0x3e537cbb	0.2065305
22	0xbd388a73	-0.04505391
23	0xbdf21d83	-0.11822035
24	0x3ef30af1	0.47469285
25	0x3e2e5943	0.17026238
26	0xbe54a123	-0.20764594
27	0x3b9f6f7e	0.004865586
28	0xbe79fda5	-0.24413164
29	0xbdd35897	-0.103196315
30	0x3e80635c	0.25075805
31	0x3d10b772	0.035331197
32	0x3ee6977b	0.45037445
33	0x3e93a707	0.2883837
34	0x3e849ac1	0.25899318
35	0x3ef63697	0.48088524
36	0xbe3aed40	-0.18254566
37	0x3e1a0a9e	0.15043113
38	0xbba0b878	-0.004904803
39	0x3e674454	0.22584659
40	0x3eabea6d	0.3357729
41	0x3e2baffc	0.16766351
42	0x3e4f41e1	0.20239975
43	0x3e39b358	0.1813482
44	0xbe2413fa	-0.16023245
45	0x3ebfd7e3	0.37469396
46	0x3e020d69	0.12700428
47	0x3dcc5e0c	0.099788755
48	0x3f022872	0.50842965
49	0x3ecbd7b0	0.39812994
50	0x3e40a490	0.18812776
51	0x3d9caebf	0.07650518
52	0xbef3f9cd	-0.4765152
53	0x3f0255dd	0.50912267
54	0x3dc20b71	0.094748385
55	0x3e9e71fe	0.30946344
56	0xbd21cf69	-0.039504442
57	0x3f105792	0.5638362
58	0x3e7cd7f5	0.24691756
59	0x3e93812e	0.28809494
60	0x3ea91753	0.33025607
61	0x3de5154f	0.11185705
62	0x3f095af6	0.5365442
63	0x3e0499fe	0.12949368
64	0xbe2bceda	-0.16778126
65	0x3f0606e5	0.5235427
66	0x3bc8591e	0.006114139
67	0xbe1c6c3d	-0.15275665
68	0x3e861ea0	0.2619524
69	0xbe977032	-0.29577786
70	0x3ebd63d8	0.36990237
71	0x3ed09875	0.40741315
72	0xbd23dff2	-0.040008493
73	0xbe0334dd	-0.12813134
74	0x3ee523ff	0.44754025
75	0xbe67a9e2	-0.22623399
76	0xbef30c42	-0.4747029
77	0xbe6aedf2	-0.22942331
78	0xbe3a039e	-0.18165442
79	0xbda81bd7	-0.08208435
80	0x3e947698	0.2899673
81	0x3eceb23c	0.40370357
82	0x3ef9a6a1	0.4875994
83	0x3e8a30e0	0.26990414
84	0xbede54a7	-0.4342396
85	0x3e870bac	0.26376092
86	0xbe5d9210	-0.2163775
87	0x3ec411cc	0.38294828
88	0x3ec112bc	0.37709606
89	0x3eaf04fd	0.34183493
90	0x3ea8e320	0.32985783
91	0x3f065567	0.52474064
92	0x3e9b79e9	0.30366448
93	0x3e495e4a	0.19664875
94	0x3df31325	0.11868886
95	0x3e6616bf	0.22469614
96	0x3e85bd54	0.26121008
97	0x3f0ad529	0.54231507
98	0x3e60c463	0.21949916
99	0x3ed439ba	0.41450292
100	0xbe6951d3	-0.2278512
101	0x3ed3e83b	0.41388115
102	0xbe6bcb6c	-0.23026818
103	0xbdccf7ef	-0.10008227
104	0x3ee98bd0	0.4561448
105	0x3edb469c	0.42827308
106	0x3e3b52aa	0.18293253
107	0x3e64af29	0.22332443
108	0x3f009c72	0.50238717
109	0x3ee91cc3	0.45529756
110	0x3d958061	0.07299877
111	0xbc568d32	-0.013095187
112	0x3e660de0	0.2246623
113	0xbe1c6b2a	-0.15275255
114	0x3db12e91	0.0865146
115	0x3ec4dac1	0.38448146
116	0xbedad39a	-0.42739564
117	0x3d203e19	0.03912172
118	0xbef4b451	-0.4779382
119	0xbeb12d02	-0.3460465
120	0x3ebc3dad	0.36765805
121	0x3e654eef	0.22393392
122	0xbdc96c44	-0.09835103
123	0x3da33c34	0.07970467
124	0xbdee0e8c	-0.11623868
125	0x3d91a677	0.07111829
126	0x3dc4123e	0.09573792
127	0x3e7f5b9b	0.24937288

action_layer.2.bias f4 [8]
0	0xc0020d05	-2.0320446
1	0xbfdbff0e	-1.7187212
2	0xbf3e5147	-0.7434277
3	0x3f075276	0.528602
4	0x3f8f98a8	1.1218462
5	0x3e1d72b1	0.15375783
6	0x3d579171	0.052628938
7	0xbf90d96d	-1.1316353
