RL_HW1/code/models/best.pth (torch, 806599 bytes, 10 tensors)

cnn.0.weight f4 [16, 3, 8, 8]
-0.34246704 -0.37110728 -0.3069831 -0.35701323 -0.37971088 -0.29776895 0.2179224 -0.39949945
-0.2786237 -0.35795772 -0.3071642 -0.23787297 -0.3320962 -0.3078746 -0.32967827 -0.27218056
-0.34456474 -0.3036273 -0.31529984 -0.2715847 0.21933424 0.18353294 0.2131266 0.19098787
-0.32728785 -0.34845027 0.34281832 0.41773933 -0.31826586 -0.29801047 -0.37719876 -0.3017565
-0.25371012 -0.3448691 -0.26071936 -0.06379178 -0.26870894 -0.4075197 -0.009082864 -0.26029018
-0.32242727 -0.3638449 -0.2727691 0.09485262 0.045576066 0.016190607 -0.0155265 -0.42164472
-0.26534104 -0.36255908 -0.06347657 -0.23775963 -0.14249231 0.18465944 0.09128631 -0.51304346
-0.30624288 -0.29425988 -0.2645816 -0.27011794 -0.3927148 -0.2786677 -0.24566156 -0.1894304
-0.33192915 -0.2966205 -0.31001943 -0.30607232 -0.33185315 -0.30409622 0.19911951 -0.3748404
-0.2823181 -0.19567607 -0.26224306 -0.20693937 -0.29671592 -0.274632 -0.27067843 -0.24367677
-0.29109627 -0.26441562 -0.3359454 -0.3312365 0.184688 0.16328038 0.26279816 0.24838464
-0.347104 -0.25723058 0.23706435 0.36641112 -0.3095221 -0.3263746 -0.46108648 -0.34331542
-0.36604407 -0.35717708 -0.34347752 -0.1326599 -0.34498903 -0.38480818 -0.20955853 -0.37742567
-0.31233075 -0.24606813 -0.30849284 -0.0755719 -0.06946861 0.11539585 -0.16593777 -0.3921165
-0.29902473 -0.2325733 -0.14823438 -0.26179543 -0.17198312 0.14601211 -0.07682222 -0.42531505
-0.18974373 -0.16445695 -0.25130036 -0.25500825 -0.3741022 -0.28978452 -0.2860351 -0.26005533
-0.39542386 -0.27280143 -0.32571557 -0.39268413 -0.25949568 -0.3088665 0.32930332 -0.23528777
-0.19176604 -0.28994516 -0.22486493 -0.24898612 -0.30635822 -0.24818671 -0.29918438 -0.32684055
-0.25098985 -0.2535504 -0.36331198 -0.3689373 0.2046103 0.26893064 0.2557525 0.28619495
-0.22755702 -0.36869168 0.30724314 0.394877 -0.34739125 -0.30584866 -0.5126228 -0.15399042
-0.2525777 -0.27221128 -0.27516645 -0.063092485 -0.39515924 -0.42462265 -0.33643368 -0.2223993
-0.36739326 -0.2565752 -0.29192743 0.010628933 -0.015246047 -0.065733805 -0.46952313 -0.42443252
-0.3930636 -0.3453605 -0.18422844 -0.35054803 -0.15605931 0.028901601 -0.081437744 -0.50642866
-0.29893854 -0.28065503 -0.23607655 -0.21736327 -0.36428314 -0.23176643 -0.3019846 -0.24259205
-0.3913284 0.17719427 0.19582276 0.19222245 -0.4393604 -0.36264595 -0.29014945 -0.3074683
-0.2964228 -0.3160344 -0.24456052 -0.33160776 -0.24024212 -0.28342423 -0.37662423 -0.27495453
-0.48308444 -0.41391218 -0.4784382 -0.36733216 -0.2375681 -0.27371883 -0.30520982 -0.30125132
-0.024982102 0.37225547 0.14622802 -0.3666662 -0.32916108 -0.35218117 -0.2658733 -0.30079153
0.20990252 0.30338517 -0.006983739 -0.33070546 -0.32645875 -0.24352503 -0.24215089 -0.35239983
0.116765894 -0.29577747 -0.3545988 -0.32528692 -0.24295951 -0.26151106 -0.36965287 -0.27081335
-0.34131435 -0.3750305 -0.2491084 -0.24207045 -0.26682678 -0.36666438 -0.26892057 -0.35819522
-0.22943817 -0.2902086 -0.28104648 -0.29439202 -0.362396 -0.24891266 -0.3273279 -0.26246923
00000000: d757 afbe c601 bebe e42c 9dbe 70ca b6be
00000010: 7769 c2be 2c75 98be 0d27 5f3e 318b ccbe
00000020: c4a7 8ebe 3c46 b7be a044 9dbe f994 73be
00000030: 8308 aabe bda1 9dbe 97cb a8be 405b 8bbe
00000040: ca6a b0be 0a75 9bbe fb6e a1be 260d 8bbe
00000050: 2899 603e 0ff0 3b3e dc3d 5a3e 5392 433e
00000060: 4692 a7be 1368 b2be e285 af3e eee1 d53e
00000070: bef3 a2be d494 98be 3220 c1be d47f 9abe
00000080: 4be6 81be af92 b0be 027d 85be 44a5 82bd
00000090: 3894 89be 6ca6 d0be 4bd0 14bc c144 85be
000000a0: 3015 a5be e149 babe 64a8 8bbe 1742 c23d
000000b0: f8ad 3a3d 2aa2 843c dc62 7ebc d1e1 d7be
000000c0: c8da 87be 58a1 b9be 0100 82bd 4377 73be
000000d0: 81e9 11be 5d17 3d3e 51f4 ba3d d156 03bf
000000e0: decb 9cbe 3ba9 96be 3d77 87be e64c 8abe
000000f0: ea11 c9be 88ad 8ebe b48e 7bbe 0bfa 41be
00000100: 9ef2 a9be a4de 97be deba 9ebe 83b5 9cbe
00000110: a8e8 a9be 80b2 9bbe fce5 4b3e 15eb bfbe
00000120: ff8b 90be 4f5f 48be b944 86be eae7 53be
00000130: 26eb 97be 919c 8cbe 5d96 8abe 6786 79be
00000140: 920a 95be 7c61 87be 0901 acbe d597 a9be
00000150: da1e 3d3e f932 273e 7b8d 863e 8b58 7e3e
00000160: 9eb7 b1be bab3 83be ffc0 723e 3d9a bb3e
00000170: ae79 9ebe 921a a7be 8713 ecbe 0ac7 afbe
00000180: 216a bbbe eadf b6be 49dc afbe ffd7 07be
00000190: 67a2 b0be 9405 c5be 8396 56be f03d c1be
000001a0: d1e9 9fbe 49f9 7bbe c6f2 9dbe 71c5 9abd
000001b0: 8f45 8ebd a954 ec3d 97eb 29be 7ec3 c8be
000001c0: c519 99be b227 6ebe c1ca 17be 0d0a 86be
000001d0: 581c 30be 3384 153e f854 9dbd e5c2 d9be
000001e0: 2e4c 42be 6767 28be 71aa 80be 7190 82be
000001f0: 538a bfbe a35e 94be 3173 92be f925 85be
00000200: ff74 cabe a1ac 8bbe 31c4 a6be e50d c9be
00000210: 9edc 84be c023 9ebe 729a a83e 47ef 70be
00000220: 515e 44be b173 94be fe42 66be 38f6 7ebe
00000230: fcda 9cbe a824 7ebe b22e 99be a557 a7be
00000240: be81 80be 5cd1 81be 0704 babe 5ae5 bcbe
00000250: 5d85 513e 47b1 893e fef1 823e 2588 923e
00000260: b504 69be 28c5 bcbe f94e 9d3e 512d ca3e
00000270: 44dd b1be 3298 9cbe 3f3b 03bf aaaf 1dbe
00000280: dd51 81be 475f 8bbe 9ee2 8cbe a236 81bd
00000290: 5052 cabe 2468 d9be 0941 acbe a4bc 63be
000002a0: f81a bcbe d35d 83be 8377 95be fa24 2e3c
000002b0: 8eca 79bc 729f 86bd 5665 f0be 384f d9be
000002c0: a23f c9be 17d3 b0be 61a6 3cbe 087b b3be
000002d0: 03ce 1fbe 0dc3 ec3c d5c8 a6bd 4fa5 01bf
000002e0: 790e 99be 04b2 8fbe 0dbe 71be 7a94 5ebe
000002f0: 5283 babe 2e54 6dbe ba9d 9abe 0d6a 78be
00000300: 325c c8be 6a72 353e c385 483e f6d5 443e
00000310: d9f3 e0be bbac b9be 788e 94be 7c6c 9dbe
00000320: bbc4 97be 43cf a1be 136e 7abe 7ec8 a9be
00000330: 0802 76be fb1c 91be e4d4 c0be d7c6 8cbe
00000340: d856 f7be 4cec d3be daf5 f4be f612 bcbe
00000350: 0d45 73be e024 8cbe 7644 9cbe 9d3d 9abe
00000360: 44a7 ccbc 4598 be3e ccbc 153e acbb bbbe
00000370: cd87 a8be 1751 b4be 8c20 88be 5901 9abe
00000380: b0f0 563e 4d55 9b3e d9d7 e4bb 3a52 a9be
00000390: 9a25 a7be a05e 79be 67f6 77be c06d b4be
000003a0: f522 ef3d 2570 97be f98d b5be 028c a6be
000003b0: 61ca 78be c7e4 85be 2443 bdbe 0ca8 8abe
000003c0: c1c0 aebe ff03 c0be 4616 7fbe 51e1 77be
000003d0: 859d 88be 6fbb bbbe f5af 89be 5d65 b7be
000003e0: d7f1 6abe 3996 94be 53e5 8fbe 8dba 96be
000003f0: f88b b9be f6e2 7ebe 8697 a7be 5e62 86be

cnn.0.bias f4 [16]
-0.36537978 -0.17523442 -0.12552343 -0.16054706 0.43165487 -0.46518016 -0.39096758 -0.1484376
-0.31813326 -0.29587394 -0.16784108 -0.366772 0.27961984 -0.12803353 -0.34784994 0.4222908
00000000: 0f13 bbbe a770 33be 3789 00be 7366 24be
00000010: de01 dd3e 182c eebe e72c c8be 0700 18be
00000020: 5de2 a2be ca7c 97be 88de 2bbe 8ac9 bbbe
00000030: 552a 8f3e 391b 03be 6319 b2be 8036 d83e

cnn.2.weight f4 [32, 16, 4, 4]
-0.28498143 -0.18760478 -0.28424466 -0.25542858 -0.2018255 -0.31529215 -0.28042504 -0.21522899
-0.19237746 -0.35290223 -0.2779706 -0.1816277 -0.2512035 -0.32027534 -0.21256587 -0.19546837
-0.2879411 -0.3123946 -0.38195252 -0.2263989 -0.34772542 -0.21291694 -0.22639364 -0.16427371
-0.38787147 -0.35960227 -0.20219967 -0.18523519 -0.26538065 -0.2633639 -0.1932475 -0.31794387
-0.25366896 -0.28571218 -0.24482214 -0.33315215 -0.27418342 -0.30135462 -0.24890399 -0.33503136
-0.23430598 -0.29177493 -0.21468502 -0.23024361 -0.28787604 -0.1938369 -0.26642117 -0.21549496
-0.26566815 -0.28700352 -0.26371408 -0.26807845 -0.33193696 -0.16468059 -0.19065112 -0.38124266
-0.28092146 -0.2529779 -0.20489164 -0.21168037 -0.3219588 -0.3730968 -0.28233513 -0.2538579
-0.37105846 -0.36447155 -0.2732954 -0.25776154 -0.33602938 -0.30241346 -0.37371314 -0.2175483
-0.30228794 -0.3245519 -0.26778388 -0.24312486 -0.28878915 -0.32920647 -0.3573995 -0.33165914
-0.37844622 -0.33677304 -0.37438908 -0.31563452 -0.34330285 -0.37005633 -0.29275274 -0.42855728
-0.29511732 -0.13076618 -0.3453259 -0.37187457 -0.20215258 0.25700775 -0.15401162 0.0828065
-0.3540884 -0.29298756 -0.21038881 -0.28676048 -0.2590933 -0.18115479 -0.2005966 -0.2937811
-0.17059214 -0.2855661 -0.1935166 -0.18845604 -0.36554518 -0.20702726 -0.38625237 -0.33122787
-0.36551368 -0.25745797 -0.24438553 -0.20989284 -0.37563476 -0.3825941 -0.21191071 -0.25084782
-0.19039533 -0.18606055 -0.22580561 -0.23982453 -0.23173222 -0.17403914 -0.23409787 -0.1651262
-0.33994713 -0.37843242 -0.33910117 -0.28694952 -0.29777607 -0.16324188 -0.27509397 -0.20116949
-0.22875403 -0.20152609 -0.24005057 -0.17476653 -0.17726088 -0.21097288 -0.27190176 -0.23152386
-0.34767103 -0.27707168 -0.31459886 -0.33208105 -0.31729865 -0.22748941 -0.223857 -0.2758481
-0.22781701 -0.19061682 -0.20831592 -0.2844523 -0.32365927 -0.28241777 -0.24573225 -0.1649087
-0.34531704 -0.2913294 -0.2023414 -0.23430395 -0.24920344 -0.18350135 -0.27974337 -0.25177452
-0.22257729 -0.22890322 -0.20487551 -0.21785726 -0.23803942 -0.25389966 -0.17688459 -0.3295784
-0.37405285 -0.18088058 -0.20874105 -0.26932445 -0.32765406 -0.3818165 -0.3881677 -0.35952812
-0.27885783 -0.22388516 -0.1664467 -0.1780461 -0.24460305 -0.25100312 -0.23331918 -0.20631896
-0.28458044 -0.31499112 -0.30342728 -0.33071494 -0.31433582 -0.27883446 -0.20184752 -0.3305532
-0.27934435 -0.21574742 -0.22555014 -0.3470568 -0.24274279 -0.2191344 -0.38325495 -0.22556765
-0.24084485 -0.22744085 -0.26218823 -0.26436716 -0.2710539 -0.22991486 -0.20496666 -0.22484156
-0.24423495 -0.33164963 -0.18559879 -0.23168181 -0.19770323 -0.38442516 -0.35061637 -0.27438885
-0.3069992 -0.25393254 -0.2607355 0.24270989 -0.25904217 -0.2784502 0.3310479 0.27195942
0.24574418 0.31714422 0.26516378 0.3599441 0.3090674 0.3377783 0.23587263 0.24917117
-0.28460813 -0.31701174 -0.35453254 -0.27414355 -0.18109466 -0.2441473 -0.1981422 -0.19246261
-0.23085588 -0.24491832 -0.24166933 -0.18303706 -0.33250976 -0.3835864 -0.32677132 -0.27115762
00000000: 16e9 91be 781b 40be 8488 91be 89c7 82be
00000010: 58ab 4ebe f96d a1be df93 8fbe fd64 5cbe
00000020: 99fe 44be 9aaf b4be 2a52 8ebe 9dfc 39be
00000030: bf9d 80be 21fb a3be deaa 59be dc28 48be
00000040: 046d 93be 2ff2 9fbe 488f c3be 1dd5 67be
00000050: 1109 b2be e606 5abe bcd3 67be 5e37 28be
00000060: 1797 c6be ca1d b8be 6e0d 4fbe 4bae 3dbe
00000070: f9df 87be a2d7 86be ace2 45be 8ac9 a2be
00000080: e6e0 81be de48 92be a8b2 7abe eb92 aabe
00000090: c561 8cbe 274b 9abe b0e0 7ebe 3b89 abbe
000000a0: e8ed 6fbe 8663 95be 64d6 5bbe fbc4 6bbe
000000b0: 7d64 93be 2e7d 46be 5b68 88be b6aa 5cbe
000000c0: a805 88be 20f2 92be 8805 87be 9441 89be
000000d0: a4f3 a9be 07a2 28be 0c3a 43be 3d32 c3be
000000e0: f0d4 8fbe 5286 81be 1dcf 51be bdc2 58be
000000f0: c9d7 a4be 8b06 bfbe 3b8e 90be aaf9 81be
00000100: 60fb bdbe 049c babe 60ed 8bbe 52f9 83be
00000110: 0b0c acbe f0d5 9abe 5457 bfbe fbc4 5ebe
00000120: 7cc5 9abe ab2b a6be f81a 89be b9f5 78be
00000130: 2cdc 93be c08d a8be 11fd b6be 3acf a9be
00000140: b4c3 c1be 846d acbe edaf bfbe d99a a1be
00000150: 64c5 afbe 0678 bdbe b0e3 95be dc6b dbbe
00000160: 9e19 97be 92e7 05be 8ece b0be 5866 bebe
00000170: 1601 4fbe 8596 833e 39b5 1dbe 7496 a93d
00000180: 134b b5be 7702 96be 2a70 57be 45d2 92be
00000190: e1a7 84be a480 39be 3269 4dbe 7a6a 96be
000001a0: b5af 2ebe b835 92be 3729 46be 9ffa 40be
000001b0: bd28 bbbe f4fe 53be dfc2 c5be b396 a9be
000001c0: 9c24 bbbe 88d1 83be 3340 7abe 26ee 56be
000001d0: 3353 c0be 60e3 c3be 1fff 58be 206f 80be
000001e0: fef6 42be a886 3ebe 9639 67be 9094 75be
000001f0: 364b 6dbe 5137 32be 5ab7 6fbe d816 29be
00000200: 8d0d aebe e5c1 c1be ab9e adbe 0ceb 92be
00000210: 1b76 98be e128 27be 1ed9 8cbe 60ff 4dbe
00000220: 7f3e 6abe db5c 4ebe d1cf 75be fff5 32be
00000230: e083 35be 4609 58be b536 8bbe 9714 6dbe
00000240: f001 b2be 57dc 8dbe 1a13 a1be 8706 aabe
00000250: f874 a2be fcf2 68be c53a 65be f63b 8dbe
00000260: dd48 69be 0e31 43be c550 55be bba3 91be
00000270: abb6 a5be 1099 90be 3ca1 7bbe d4dd 28be
00000280: 65cd b0be 2129 95be 9532 4fbe 60ed 6fbe
00000290: 302f 7fbe c7e7 3bbe 863a 8fbe 97e8 80be
000002a0: 4deb 63be 9b65 6abe e3ca 51be f915 5fbe
000002b0: 9bc0 73be 23ff 81be 3c21 35be 80be a8be
000002c0: db83 bfbe c238 39be 37c0 55be e5e4 89be
000002d0: 46c2 a7be 747d c3be ebbd c6be 1214 b8be
000002e0: 74c6 8ebe 2742 65be 0171 2abe b851 36be
000002f0: 3979 7abe 7b83 80be 39eb 6ebe 4745 53be
00000300: 87b4 91be 8446 a1be d25a 9bbe 7853 a9be
00000310: a0f0 a0be 64c3 8ebe 1eb1 4ebe 453e a9be
00000320: 3906 8fbe e4ec 5cbe 9ef6 66be 6eb1 b1be
00000330: 9191 78be c564 60be fe39 c4be 35fb 66be
00000340: 08a0 76be 41e6 68be 893d 86be 225b 87be
00000350: 94c7 8abe cd6e 6bbe c8e2 51be de3c 66be
00000360: ba18 7abe fbcd a9be 9c0d 3ebe ff3d 6dbe
00000370: b772 4abe 60d3 c4be fd83 b3be b27c 8cbe
00000380: 002f 9dbe 7203 82be 207f 85be f188 783e
00000390: 2da1 84be 0691 8ebe 1c7f a93e 443e 8b3e
000003a0: 5da4 7b3e ba60 a23e 8cc3 873e 984a b83e
000003b0: 153e 9e3e 47f1 ac3e 9888 713e ba26 7f3e
000003c0: 28b8 91be 5d4f a2be 4a85 b5be 8b5c 8cbe
000003d0: e170 39be c001 7abe cae5 4abe eb14 45be
000003e0: 7c65 6cbe decb 7abe 2a78 77be 116e 3bbe
000003f0: b83e aabe 7065 c4be 924e a7be 2cd5 8abe

cnn.2.bias f4 [32]
-0.19564375 -0.27042556 -0.442791 -0.3715641 -0.0846795 -0.3560731 -0.21089947 -0.2958526
-0.3735399 -0.277917 -0.3825416 0.28917512 -0.2927485 -0.17238235 -0.1667471 -0.3246468
-0.105241016 -0.24948873 -0.35966387 -0.2552377 -0.4632289 -0.24950306 -0.17982961 -0.22297306
-0.32844722 -0.1885285 -0.45766073 -0.35129404 -0.29429394 -0.33124262 -0.23420183 -0.19686037
00000000: d656 48be 3875 8abe 80b5 e2be a63d bebe
00000010: 726c adbd 374f b6be 08f6 57be fe79 97be
00000020: 9f40 bfbe 234b 8ebe 7edc c3be c30e 943e
00000030: 22e3 95be 0085 30be c0bf 2abe 1b38 a6be
00000040: 9a88 d7bd f979 7fbe dd25 b8be 84ae 82be
00000050: 572c edbe bb7d 7fbe 4125 38be 0d53 64be
00000060: 3c2a a8be 9d0d 41be 8252 eabe d0dc b3be
00000070: b2ad 96be a298 a9be 9bd2 6fbe c495 49be

cnn.4.weight f4 [32, 32, 3, 3]
-0.24056584 -0.22528806 -0.33385986 -0.35019523 -0.16819091 -0.31957436 0.2551691 -0.3370687
0.32441995 -0.2699341 -0.3496994 -0.30606657 -0.25946835 -0.2844625 -0.35106108 -0.31603923
-0.33024657 -0.299691 -0.3775999 -0.25525317 -0.26755723 -0.3899949 -0.28326294 -0.26672778
-0.40671223 -0.26359364 -0.29020986 -0.24097908 -0.30682197 -0.39918754 -0.37863258 -0.32681203
-0.39512447 -0.324391 -0.33692357 -0.42828736 -0.0016721425 -0.3454222 0.27951086 -0.43939564
-0.4103791 -0.46885097 -0.3877825 -0.24898157 -0.42007598 -0.39970475 -0.3188196 -0.18956679
-0.368501 -0.39516985 -0.13331734 -0.3948925 -0.3318006 -0.14483075 -0.35156128 -0.3995746
0.22580014 -0.25104466 -0.42920002 -0.46486676 -0.37236953 -0.3380886 -0.2675588 -0.26343676
-0.27281776 0.24970156 -0.3976995 -0.3479559 -0.30286193 -0.33547935 -0.2796877 -0.29764003
-0.29729834 -0.45718053 -0.3197668 -0.20395045 -0.21280381 -0.33880898 -0.18198474 -0.10558757
-0.23264559 -0.29046503 -0.06359748 -0.2642449 -0.26248088 -0.43775222 -0.30964175 0.24955454
-0.35717526 0.35304376 -0.35234854 0.3437168 -0.2972683 -0.26990706 -0.27963027 -0.31148234
-0.31810284 -0.3145712 -0.29643887 -0.39051807 -0.29832628 -0.31320596 -0.23133852 -0.39740595
-0.14370163 -0.40051302 -0.30900607 -0.21129544 -0.37359017 -0.21050125 -0.21660624 -0.41161704
-0.3557739 -0.30795327 -0.32917404 -0.29300696 -0.37143767 0.25735074 0.15298818 -0.41944224
-0.3663927 -0.25696906 -0.33477685 0.16489537 -0.151858 -0.17753634 -0.34521794 -0.2823522
-0.3188243 -0.29027504 -0.33107167 -0.3336965 0.124306574 -0.34414718 0.31919876 -0.27334625
-0.27819565 -0.26168248 -0.32786328 -0.3148652 -0.31511655 -0.23944515 -0.2894492 -0.2642628
-0.3333571 -0.44465554 -0.3353159 -0.37757984 -0.37034738 -0.40149868 -0.017174844 -0.400515
-0.18227533 -0.27591756 -0.24571139 -0.34358767 -0.32427162 -0.27841675 -0.24315569 -0.24659836
-0.31741184 -0.29185596 -0.27969941 0.06494052 -0.42456487 -0.29815724 -0.48355266 -0.42520776
-0.07293112 -0.37405226 -0.36779526 -0.28300428 -0.2761099 -0.27775866 -0.4193909 -0.2756326
-0.32446066 -0.24189898 -0.30632517 -0.32637343 -0.2407112 -0.2684098 -0.3147176 -0.39233178
-0.37886974 0.37482652 -0.31250143 -0.5191323 -0.17672409 0.28825223 -0.4001174 -0.38771498
-0.4036425 -0.32761827 -0.5456525 -0.3769882 -0.32276672 -0.45572174 -0.1496124 -0.31256437
-0.10388285 -0.38572976 -0.31803283 -0.23718014 -0.2774374 -0.33683422 -0.25017753 -0.31741846
-0.32675713 -0.34333372 -0.30357948 -0.26619393 -0.3356006 -0.2990728 -0.30235848 -0.35707083
-0.25069034 -0.32517534 -0.30215156 -0.32340568 -0.2455333 -0.2638422 -0.26010713 -0.35057095
-0.26266667 -0.33555657 -0.36681777 -0.28002024 -0.41383114 -0.34202588 -0.34157717 -0.2925325
-0.33179107 -0.27827364 -0.15461029 -0.45037368 0.26465088 -0.15283003 -0.07626427 0.3075369
-0.22221468 -0.29586187 0.2556083 -0.24757066 -0.3055072 -0.3474835 -0.3563853 -0.3253449
-0.30455053 -0.2945805 -0.35546887 -0.30073103 -0.34059784 -0.33215615 -0.35392532 -0.26406795
00000000: e456 76be eab1 66be aeef aabe ca4c b3be
00000010: 3d3a 2cbe 409f a3be 86a5 823e 4594 acbe
00000020: 5f1a a63e cd34 8abe cd0b b3be c2b4 9cbe
00000030: 09d9 84be 12a5 91be 47be b3be e5cf a1be
00000040: 1416 a9be 1971 99be c654 c1be 8bb0 82be
00000050: 43fd 88be 69ad c7be d707 91be 8b90 88be
00000060: 963c d0be bff5 86be 6396 94be 38c3 76be
00000070: c517 9dbe 4f62 ccbe 21dc c1be e853 a7be
00000080: c14d cabe 9416 a6be 3f81 acbe 7b48 dbbe
00000090: cb2b dbba 2edb b0be 0c1c 8f3e 77f8 e0be
000000a0: 361d d2be 3c0d f0be 6e8b c6be 06f5 7ebe
000000b0: 3314 d7be 1aa6 ccbe 533c a3be cc1d 42be
000000c0: 2aac bcbe b453 cabe 5784 08be 5a2f cabe
000000d0: c5e1 a9be 834e 14be d7ff b3be 0b95 ccbe
000000e0: 2738 673e ed88 80be 1bc0 dbbe 0403 eebe
000000f0: 38a7 bebe f319 adbe 78fd 88be 2fe1 86be
00000100: c5ae 8bbe c4b1 7f3e 459f cbbe 4727 b2be
00000110: b810 9bbe f3c3 abbe 3a33 8fbe 4664 98be
00000120: 7d37 98be 9113 eabe 79b8 a3be 63d8 50be
00000130: 3ee9 59be 5f78 adbe 355a 3abe 4c3e d8bd
00000140: a53a 6ebe d5b7 94be 653f 82bd 1c4b 87be
00000150: e563 86be 0f21 e0be 5d89 9ebe 3a8b 7f3e
00000160: addf b6be 27c2 b43e 0767 b4be a6fb af3e
00000170: 8d33 98be 4231 8abe b32b 8fbe 9d7a 9fbe
00000180: 60de a2be 7a0f a1be d6c6 97be fcf1 c7be
00000190: 39be 98be 885c a0be 01e4 6cbe cb78 cbbe
000001a0: 8526 13be 0b10 cdbe 0b36 9ebe d55d 58be
000001b0: 3647 bfbe a48d 57be 07ce 5dbe 78bf d2be
000001c0: ff27 b6be 0dac 9dbe 8089 a8be 0205 96be
000001d0: 142d bebe 7ac3 833e efa8 1c3e 22c1 d6be
000001e0: d397 bbbe 7391 83be df67 abbe 55da 283e
000001f0: aa80 1bbe 16cc 35be 68c0 b0be 7890 90be
00000200: f03c a3be ee9e 94be 3a82 a9be 45da aabe
00000210: 7294 fe3d 0f34 b0be 056e a33e 0af4 8bbe
00000220: a96f 8ebe 3ffb 85be b2dd a7be 0336 a1be
00000230: f556 a1be 1c31 75be af32 94be 744d 87be
00000240: c8ad aabe e4a9 e3be 87ae abbe 2552 c1be
00000250: 2c9e bdbe 3c91 cdbe 42b2 8cbc 4d10 cdbe
00000260: 62a6 3abe 1145 8dbe c49b 7bbe b9ea afbe
00000270: ee06 a6be a48c 8ebe cefd 78be 4884 7cbe
00000280: ce83 a2be 256e 95be c334 8fbe 89ff 843d
00000290: 9160 d9be 11a8 98be 3794 f7be d5b4 d9be
000002a0: e95c 95bd c783 bfbe a94f bcbe f0e5 90be
000002b0: 475e 8dbe 6236 8ebe 67ba d6be b71f 8dbe
000002c0: b51f a6be 5eb4 77be a7d6 9cbe 6b1a a7be
000002d0: ff7c 76be 026d 89be aa22 a1be b6df c8be
000002e0: 37fb c1be 43e9 bf3e 3000 a0be dbe5 04bf
000002f0: 29f7 34be cc95 933e 30dc ccbe 9482 c6be
00000300: 3baa cebe 95bd a7be e2af 0bbf 9904 c1be
00000310: ae41 a5be 5c54 e9be fe33 19be 7008 a0be
00000320: 88c0 d4bd 5f7e c5be 33d5 a2be 5adf 72be
00000330: 460c 8ebe 8975 acbe 4517 80be ac84 a2be
00000340: b64c a7be 70c9 afbe c56e 9bbe 924a 88be
00000350: d8d3 abbe 1220 99be bbce 9abe fdd1 b6be
00000360: 7c5a 80be 627d a6be 9cb3 9abe 6e95 a5be
00000370: 156d 7bbe 5316 87be c32c 85be 097e b3be
00000380: 3f7c 86be 12ce abbe 8acf bbbe d05e 8fbe
00000390: ade1 d3be 041e afbe 34e3 aebe d2c6 95be
000003a0: 85e0 a9be e279 8ebe 2952 1ebe 6197 e6be
000003b0: 5280 873e 7a7f 1cbe 7130 9cbd 7a75 9d3e
000003c0: 3f8c 63be 357b 97be 17df 823e 2a83 7dbe
000003d0: 716b 9cbe 5be9 b1be 2278 b6be 9b93 a6be
000003e0: 0cee 9bbe 41d3 96be 0400 b6be 6bf9 99be
000003f0: d762 aebe 5f10 aabe b335 b5be ea33 87be

cnn.4.bias f4 [32]
-0.38742977 -0.28054804 -0.44709882 -0.32250613 -0.27104393 -0.30693856 -0.25287247 -0.31428584
-0.282273 -0.33255577 -0.4041443 -0.3672308 -0.49545303 -0.42894122 -0.3038807 -0.3051322
-0.300624 -0.28648627 -0.23295571 -0.5128207 -0.23516873 -0.4519482 -0.3150306 -0.3230636
-0.330222 -0.30482453 -0.43518725 -0.3063087 -0.34583673 -0.5505542 -0.48383427 -0.30994415
00000000: 325d c6be fea3 8fbe 23ea e4be 861f a5be
00000010: 45c6 8abe 0d27 9dbe 8078 81be 13ea a0be
00000020: 1686 90be c044 aabe 00ec cebe ad05 bcbe
00000030: 05ac fdbe 2f9e dbbe 4096 9bbe 4a3a 9cbe
00000040: 64eb 99be 54ae 92be f18b 6ebe 3848 03bf
00000050: 12d0 70be c165 e7be b14b a1be 9868 a5be
00000060: dc12 a9be f611 9cbe ddd0 debe 7ed4 9cbe
00000070: 8311 b1be 1ff1 0cbf 20b9 f7be 00b1 9ebe

action_layer.0.weight f4 [16, 11264]
-0.0016817013 -0.0029922589 0.004474533 0.00409175 -0.2613824 0.30180317 0.0011497904 0.007068565
-0.0036668517 -0.0031228284 -0.0056453506 0.29231253 0.29795694 -0.00617846 0.009278525 0.005349282
0.008785652 -0.008761861 -0.004428631 -0.0030340618 -0.1764111 0.29284483 0.30619988 0.30225348
0.29716623 0.2943779 0.29014298 0.3035253 0.29134655 -0.009002395 -0.001088988 -0.005810436
0.29439765 0.30037716 0.30659524 0.29766905 0.2899475 0.2968312 0.30515066 0.2966151
0.3068191 0.30431202 0.3072771 0.30298588 0.28919965 0.29203045 0.29853144 0.30274978
0.30712825 0.28885016 0.3061899 0.3001143 0.2942785 0.30264422 0.29778305 0.2923215
0.29842758 0.2912341 0.29913753 0.30382687 0.2995682 0.3045181 0.29290146 0.30107397
0.28953457 0.30639908 0.30672535 0.300693 0.29554746 0.29790956 0.3056746 0.29638833
0.29139268 0.2936273 0.30036968 0.29363042 0.28903612 0.29407027 0.30527568 0.28971252
0.3060285 0.2927281 0.2966059 0.2990996 0.29632363 0.30722436 0.29223415 0.30604902
0.29540208 0.29889688 0.2959495 0.28962213 0.29095307 0.293797 -0.057406254 0.2930178
-0.26802996 -0.0033619502 0.0061255572 0.0050341506 0.00031656493 -1.6197562e-05 -0.007902828 -0.009019716
0.0006187577 0.0008102162 -0.0077325446 -0.006913261 -0.0033473154 -0.0057433615 -0.25578952 0.29717088
-0.17368266 0.28955656 0.30012602 0.0087830685 0.00022170506 -0.006305242 0.0023830533 0.008236822
-0.009374693 0.007047128 -0.0028581186 0.0010229228 -0.0062976503 0.29750162 -0.17267641 0.2892187
0.3048923 0.29127094 0.3017392 0.30393142 0.30162382 0.3041224 0.30319297 0.29129723
0.2940252 0.30193213 0.3041122 0.30533037 0.2928228 0.30224454 0.29675502 0.2949771
0.2946241 0.29687324 0.2925765 0.0010708738 0.3065125 0.008626444 -0.018263202 0.28999022
0.304232 0.29650545 0.30209512 0.009245332 0.0064400453 -0.0078050876 0.29603803 0.30355456
0.3060576 0.30468377 0.30349886 0.30341116 0.30017808 0.0032000998 -0.18098675 0.30082148
0.30102122 0.30335233 0.0060207164 -0.25757498 0.29838055 0.29200545 0.3001176 0.30416283
0.29424325 0.30704868 0.30639616 0.29953477 0.30063263 0.29240707 -0.17947659 0.29767975
0.29460403 0.29769063 0.30701283 -0.2641063 0.29536754 0.30046245 0.28976345 0.29453707
0.2987805 0.30247745 0.29630217 -0.1578791 0.004633569 -0.0023234747 -0.25656158 0.29870617
0.29923663 0.30236125 0.0007910831 -0.27155668 0.30307 0.29709184 0.30379736 0.30703083
0.29207385 0.30371422 0.2995191 0.29301682 0.0039005214 0.0016020732 -0.26602405 0.3035693
0.29370627 0.29623955 0.29445836 0.0051896637 0.2942044 0.28964674 0.30525473 0.30527604
0.2954067 0.3032335 0.2956296 0.2906539 0.26189703 0.30374873 0.30496338 0.30292523
0.2919951 0.29378766 0.29512686 0.29923877 0.30492952 -0.16182041 0.30202466 0.3001319
0.29756027 0.29860184 0.29254732 0.002272848 0.361595 0.19901958 0.29937872 0.30764648
0.2936399 0.289188 0.30676952 -0.004901651 0.28980756 -0.17814715 0.2973831 0.2979963
00000000: 886c dcba c619 44bb 1a9f 923b 1614 863b
00000010: ead3 85be f285 9a3e 90b4 963a 6c9f e73b
00000020: 904f 70bb 5ea8 4cbb a2fc b8bb fda9 953e
00000030: d08d 983e ae74 cabb f404 183c 0849 af3b
00000040: b2f1 0f3c e98d 0fbc 0d1e 91bb 1cd7 46bb
00000050: 1da5 34be c2ef 953e 3bc6 9c3e f8c0 9a3e
00000060: 2c26 983e b3b8 963e 9f8d 943e ab67 9b3e
00000070: 602b 953e c87e 13bc 60bc 8eba 7865 bebb
00000080: 4abb 963e 09cb 993e 0dfa 9c3e 1468 983e
00000090: 0074 943e 42fa 973e b53c 9c3e efdd 973e
000000a0: 6517 9d3e c9ce 9b3e 6d53 9d3e f720 9b3e
000000b0: fa11 943e 0485 953e 1dd9 983e 0502 9b3e
000000c0: ea3f 9d3e 2be4 933e ecc4 9c3e 95a8 993e
000000d0: acab 963e 2ff4 9a3e 0577 983e 2aab 953e
000000e0: 80cb 983e a31c 953e 8e28 993e 328f 9b3e
000000f0: 0161 993e cce9 9b3e 2ef7 953e 5e26 9a3e
00000100: e03d 943e 57e0 9c3e 1b0b 9d3e 6ff4 993e
00000110: ff51 973e 9a87 983e 6281 9c3e 36c0 973e
00000120: 6c31 953e 5156 963e 0eca 993e ba56 963e
00000130: 8bfc 933e 6190 963e 184d 9c3e 3355 943e
00000140: c4af 9c3e 75e0 953e bbdc 973e 9523 993e
00000150: bbb7 973e 834c 9d3e b79f 953e 75b2 9c3e
00000160: f13e 973e 0309 993e b186 973e 5a49 943e
00000170: cdf7 943e 8f6c 963e d222 6bbd 6e06 963e
00000180: 393b 89be 2a54 5cbb e6b8 c83b 84f5 a43b
00000190: a0f8 a539 00e0 87b7 dd7a 01bc 6ec7 13bc
000001a0: 2034 223a b064 543a 4961 fdbb a388 e2bb
000001b0: a25e 5bbb cf32 bcbb d8f6 82be c826 983e
000001c0: ded9 31be c240 943e 1eaa 993e dce6 0f3c
000001d0: 8079 6839 349c cebb 002d 1c3b bcf3 063c
000001e0: 5098 19bc 98eb e63b 464f 3bbb 9813 863a
000001f0: 855c cebb 2252 983e 16d2 30be 7914 943e
00000200: d81a 9c3e 7721 953e 8f7d 9a3e e69c 9b3e
00000210: 706e 9a3e eeb5 9b3e 1c3c 9b3e e924 953e
00000220: 798a 963e d996 9a3e 98b4 9b3e 4354 9c3e
00000230: dfec 953e ccbf 9a3e 46f0 973e 3d07 973e
00000240: f8d8 963e c5ff 973e 96cc 953e 905c 8c3a
00000250: 35ef 9c3e ee55 0d3c b69c 95bc 9979 943e
00000260: 4cc4 9b3e 90cf 973e 36ac 9a3e bc79 173c
00000270: 0407 d33b d2c1 ffbb 4c92 973e 816b 9b3e
00000280: 95b3 9c3e 83ff 9b3e 3464 9b3e b558 9b3e
00000290: f1b0 993e c4b8 513b 9754 39be 4605 9a3e
000002a0: 741f 9a3e ff50 9b3e 6e49 c53b dee0 83be
000002b0: 56c5 983e bd81 953e 04a9 993e 3bbb 9b3e
000002c0: 0da7 963e 7c35 9d3e f5df 9c3e 9f5c 993e
000002d0: 85ec 993e 61b6 953e b6c8 37be 7b69 983e
000002e0: 57d6 963e e86a 983e c930 9d3e f138 87be
000002f0: 6a3a 973e 37d6 993e e05b 943e 90cd 963e
00000300: c2f9 983e 53de 9a3e ebb4 973e 0fab 21be
00000310: 32d5 973b 7045 18bb 0a5c 83be 04f0 983e
00000320: 8b35 993e 18cf 9a3e b060 4f3a 7a09 8bbe
00000330: fe2b 9b3e 6c1c 983e 548b 9b3e 2533 9d3e
00000340: b48a 953e 6e80 9b3e 915a 993e 4d06 963e
00000350: e49f 7f3b a8fc d13a 4e34 88be 6f6d 9b3e
00000360: ab60 963e b6ac 973e 3fc3 963e 0e0e aa3b
00000370: f6a1 963e 944c 943e 594a 9c3e 244d 9c3e
00000380: 8c3f 973e 6c41 9b3e c35c 973e 97d0 943e
00000390: 5e17 863e f484 9b3e 2924 9c3e 0419 9b3e
000003a0: 6280 953e 566b 963e de1a 973e d335 993e
000003b0: b91f 9c3e 40b4 25be faa2 9a3e e3aa 993e
000003c0: d259 983e 57e2 983e c3c8 953e 10f4 143b
000003d0: fb22 b93e cacb 4b3e 2b48 993e d783 9d3e
000003e0: f857 963e 7310 943e e510 9d3e 079e a0bb
000003f0: a861 943e 356c 36be 9942 983e f992 983e

action_layer.0.bias f4 [16]
0.33363 0.6578059 -0.3077209 -0.23456919 -0.30100802 -0.15519875 -0.4092725 -0.28079084
-0.1578935 -0.18653302 -0.35265428 0.3052723 -0.29733253 -0.18882132 -0.054998152 -0.31481802
00000000: 8dd1 aa3e f865 283f 988d 9dbe e832 70be
00000010: b91d 9abe 6cec 1ebe 2a8c d1be d1c3 8fbe
00000020: d5ae 21be 8302 3fbe 1a8f b4be a74c 9c3e
00000030: f83b 98be 605a 41be be45 61bd d42f a1be

action_layer.2.weight f4 [8, 16]
-1.5467646 -0.7645818 -0.19209059 -0.5142959 -0.52979004 -0.7580835 -0.32592553 -0.14461926
-0.78634536 -0.33928323 -0.5523856 -1.7044635 -0.24552418 -0.30972815 -0.28656557 -0.45213553
0.04104073 -0.09116083 0.19352598 0.43856338 -0.27088505 0.20408371 -0.043325227 -0.11533704
0.47200796 0.167766 -0.20564295 0.030083012 -0.24210887 -0.10591083 0.24800098 0.032563154
0.44809058 0.40592182 0.25674093 0.47810912 -0.18052422 0.14814657 -0.0015619858 0.22491741
0.33294892 0.16541281 0.2018385 0.17909661 -0.15820971 0.37244496 0.12475043 0.09753652
0.5063539 0.4039069 0.18587822 0.07402145 -0.47449425 0.50704867 0.09154325 0.30772564
-0.041715004 0.5616102 0.24368666 0.2858447 0.3282332 0.1096084 0.53429383 0.12724409
-0.16557124 0.5330826 0.0083646225 -0.15012015 0.2599296 -0.29356813 0.36799076 0.40344077
-0.037387863 -0.1258892 0.44557616 -0.22398448 -0.47268003 -0.22717485 -0.17940289 -0.07983395
0.28765273 0.29401404 0.48534742 0.26702002 -0.43221757 0.2614506 -0.21361665 0.38235354
0.37414768 0.33957937 0.32765144 0.522487 0.3016416 0.19440089 0.11643534 0.22244439
0.25888243 0.13726746 0.21725069 0.41259348 -0.22583045 0.41156787 -0.22742711 -0.09736747
0.45385265 0.4260188 0.18369108 0.22106105 0.50036454 0.45305002 0.07074957 -0.0153437
0.22234401 -0.2782849 0.08426583 0.38144317 -0.42537338 0.03680102 -0.4750538 -0.34446
0.36451408 0.22167857 -0.09621115 0.07745237 -0.1142159 0.06887036 0.09348872 0.24712507
00000000: 62fc c5bf a2bb 43bf 65b3 44be e5a8 03bf
00000010: 52a0 07bf c311 42bf b6df a6be 1217 14be
00000020: ee4d 49bf 88b6 adbe 2569 0dbf dc2b dabf
00000030: b16a 7bbe b094 9ebe b9b8 92be 4f7e e7be
00000040: 531a 283d 87b2 babd ad2b 463e 618b e03e
00000050: 72b1 8abe 52fb 503e cb75 31bd d335 ecbd
00000060: 07ab f13e daca 2b3e 1194 52be a670 f63c
00000070: 63eb 77be c7e7 d8bd f8f3 7d3e f160 053d
00000080: 216c e53e fcd4 cf3e 8c73 833e b8ca f43e
00000090: 57db 38be bcb3 173e 8cbb ccba c050 663e
000000a0: 4878 aa3e fa61 293e c0ae 4e3e 1a65 373e
000000b0: ba01 22be 1bb1 be3e 277d ff3d 3ac1 c73d
000000c0: 69a0 013f e3cc ce3e dc56 3e3e 8f98 973d
000000d0: e9f0 f2be f1cd 013f 077b bb3d 378e 9d3e
000000e0: 5add 2abd b0c5 0f3f ff88 793e 3d5a 923e
000000f0: 2f0e a83e 5e7a e03d 7bc7 083f 464c 023e
00000100: 828b 29be 1a78 083f c50b 093c 19b9 19be
00000110: 7e15 853e 904e 96be 4969 bc3e ca8f ce3e
00000120: 0424 19bd 19e9 00be 8f22 e43e 305c 65be
00000130: 1e03 f2be 86a0 68be 64b5 37be fb7f a3bd
00000140: 3847 933e 0289 963e 757f f83e d9b6 883e
00000150: 9f4b ddbe dadc 853e 53be 5abe d8c3 c33e
00000160: 4990 bf3e 59dd ad3e eec1 a73e b5c1 053f
00000170: c570 9a3e 0711 473e a775 ee3d 76c8 633e
00000180: 3d8c 843e d78f 0c3e f776 5e3e 743f d33e
00000190: 1940 67be 06b9 d23e a7e2 68be 9968 c7bd
000001a0: 605f e83e 231f da3e 8419 3c3e d45d 623e
000001b0: e417 003f 2cf6 e73e 27e5 903d 2464 7bbc
000001c0: 26ae 633e 5c7b 8ebe 9093 ac3d 854c c33e
000001d0: 8aca d9be abbc 163d 403a f3be 105d b0be
000001e0: 97a1 ba3e b5ff 623e 5a0a c5bd 599f 9e3d
000001f0: 07ea e9bd e70b 8d3d 0477 bf3d 5b0e 7d3e

action_layer.2.bias f4 [8]
-1.7811362 -1.2184745 -0.6199926 0.53540564 1.0415676 0.05601263 -0.21454327 -1.1971154
00000000: 45fc e3bf f9f6 9bbf d6b7 1ebf 5810 093f
00000010: 1652 853f 806d 653d 3bb1 5bbe 143b 99bf
